PhysioNet/model/PhysioNet_model.pth (torch, 828788 bytes, 46 tensors)

cnn_model_1.conv1.0.weight f4 [16, 1, 3, 3]
-0.099205494 0.26237485 0.10140729 0.042803645 -0.056779545 -0.1525712 0.1476603 -0.24635808
-0.28411183 0.11047354 0.16403843 -0.27774957 0.11265083 -0.14544824 -0.3898437 0.1921339
0.24054545 0.031399887 -0.014182213 -0.22541794 0.19139284 0.19768241 0.10390483 0.2072817
0.2299935 -0.31901658 0.22372754 0.25212923 -0.0701354 -0.12885077 0.043744773 0.069830716
-0.13740647 -0.13487436 0.21270014 0.22814378 -0.18527126 -0.06424017 -0.23864478 -0.19176354
-0.20793754 -0.19783087 0.27032647 -0.16693933 0.2695119 0.4085283 0.35131034 0.3960624
-0.09327029 -0.33989564 0.1785893 -0.13855109 -0.1504678 -0.44006306 0.1990088 -0.18552415
-0.05706855 -0.26176924 0.12447214 -0.1350902 0.07371855 -0.31019443 0.090244174 0.35319328
-0.20437902 -0.038288895 0.23363459 -0.16037083 0.06615613 0.20131667 -0.2910372 -0.2861844
0.0785166 -0.16400288 -0.15084307 -0.27459162 -0.38051468 -0.43143532 -0.027780266 -0.028259916
-0.14061505 0.37381583 0.2812699 0.29149747 -0.2876899 -0.16680105 0.25336346 0.16353731
0.10377381 -0.071334176 0.14235461 0.14987317 -0.2925819 -0.085616805 -0.10980821 -0.34157234
0.24576189 -0.15234332 0.22041284 -0.3819854 -0.26027068 -0.10291967 -0.13753535 0.006458547
0.07776236 0.30422717 0.22962466 -0.03920448 -0.43261266 -0.42814714 0.24857186 -0.26656035
-0.26788965 -0.23057058 0.086112134 0.2514468 0.24078456 -0.13876362 -0.29429248 -0.42413157
-0.06938599 0.030873181 -0.34729397 0.049278446 0.33463016 -0.12766567 -0.25903302 -0.29649416
-0.30875143 -0.44784644 0.10782065 0.051467065 0.17059559 -0.04531165 -0.26588836 -0.28713986
-0.27189928 0.27518427 -0.151553 -0.26811954 -0.051680386 0.09404691 -0.32170168 0.22355641
00000000: 402c cbbd ff55 863e a0ae cf3d e052 2f3d
00000010: ab91 68bd a03b 1cbe 4334 173e 4b45 7cbe
00000020: 1b77 91be f43f e23d b1f9 273e 3135 8ebe
00000030: 7ab5 e63d 62f0 14be 9899 c7be c0be 443e
00000040: 8c51 763e 2b9d 003d 835c 68bc f6d3 66be
00000050: 7cfc 433e 426d 4a3e 0ecc d43d a741 543e
00000060: 6b83 6b3e 2456 a3be d518 653e 1517 813e
00000070: 26a3 8fbd 75f1 03be b82d 333d 6803 8f3d
00000080: 48b4 0cbe 811c 0abe 11ce 593e 869e 693e
00000090: c0b7 3dbe 5a90 83bd 4c5f 74be a95d 44be
000000a0: 94ed 54be 2d94 4abe 3b68 8a3e 25f2 2abe
000000b0: 77fd 893e 9f2a d13e f3de b33e b1c8 ca3e
000000c0: 7e04 bfbd cd06 aebe 1de0 363e 56e0 0dbe
000000d0: 3b14 1abe f24f e1be f6c8 4b3e 0bfa 3dbe
000000e0: b6c0 69bd 9e06 86be 40eb fe3d 1655 0abe
000000f0: c0f9 963d ced1 9ebe f0d1 b83d c0d5 b43e
00000100: bc48 51be d1d4 1cbd e83d 6f3e 4038 24be
00000110: dd7c 873d f525 4e3e d402 95be c386 92be
00000120: 50cd a03d 5ff0 27be 9b76 1abe 4697 8cbe
00000130: d2d2 c2be 17e5 dcbe 7193 e3bc 5781 e7bc
00000140: 64fd 0fbe ca64 bf3e 9c02 903e 283f 953e
00000150: 174c 93be e5cd 2abe dbb8 813e 5376 273e
00000160: 5d87 d43d a717 92bd 68c5 113e 5a78 193e
00000170: 4bcd 95be dd57 afbd 20e3 e0bd 92e2 aebe
00000180: 01a9 7b3e e3ff 1bbe e7b3 613e 9793 c3be
00000190: 3342 85be 8cc7 d2bd 11d6 0cbe 38a2 d33b
000001a0: df41 9f3d aac3 9b3e ba22 6b3e e094 20bd
000001b0: 687f ddbe 1a36 dbbe 9f89 7e3e 997a 88be
000001c0: d528 89be b21a 6cbe 8f5b b03d a3bd 803e
000001d0: 3a90 763e 0d18 0ebe 81ad 96be c627 d9be
000001e0: 3e1a 8ebd c1e9 fc3c 84d0 b1be 32d8 493d
000001f0: a554 ab3e caba 02be fa9f 84be 15ce 97be
00000200: ab14 9ebe 214c e5be 13d1 dc3d 21cf 523d
00000210: 9cb0 2e3e b598 39bd 8522 88be ff03 93be
00000220: 6236 8bbe f4e4 8c3e b630 1bbe f746 89be
00000230: d0ae 53bd ab9b c03d 15b6 a4be f9eb 643e

cnn_model_1.conv1.0.bias f4 [16]
-0.22213678 -0.03781731 -0.19641745 -0.31107986 0.3129381 -0.065845996 -0.22088003 -0.21655585
0.23874299 -0.3070526 -0.023642844 0.14105979 0.008127065 -0.022342093 0.14304462 0.2903821
00000000: d377 63be 53e6 1abd a821 49be dc45 9fbe
00000010: 6c39 a03e 44da 86bd 602e 62be d1c0 5dbe
00000020: 0b79 743e 0036 9dbe a3ae c1bc fa71 103e
00000030: 6227 053c c406 b7bc 4a7a 123e f6ac 943e

cnn_model_1.conv2.0.weight f4 [32, 16, 3, 3]
-0.027748963 -0.037648678 -0.077265576 -0.074838236 -0.02043755 0.0065567098 -0.02614389 -0.018564781
0.07446541 -0.18829127 -0.15146703 -0.06777237 -0.10344069 0.009746717 -0.065887876 -0.097334936
-0.119845 -0.07487 -0.19110608 -0.085333176 -0.18786815 0.021957105 -0.07015935 0.039465006
0.016133016 0.03472956 -0.01274204 0.020291382 0.026505731 0.019525021 0.01921626 0.07574034
0.021077732 -0.0064678127 0.031934664 0.104561694 -0.07526816 -0.053981405 0.051107496 0.11305056
-0.005828227 -0.060821105 -0.13701564 -0.14218202 -0.14532988 0.015481638 0.01386028 -0.011629846
-0.08640075 -0.046407953 -0.054781843 0.006952244 -0.06431345 -0.0825813 0.04338349 0.020179212
0.06643655 0.07853527 0.032548986 -0.04455338 -0.049060315 -0.065612696 0.035534434 0.050220508
-0.07057771 0.13208453 0.1850981 0.002790995 -0.0260842 0.15081199 0.009935365 0.1378487
0.06556289 0.079041876 -0.061030034 0.02116602 0.100810125 0.036101338 -0.011335836 -0.17275064
-0.1564925 -0.092483245 -0.23443693 0.054928407 -0.03461418 -0.10840956 -0.14100958 -0.035003662
0.05683793 -0.004371218 -0.05443737 -0.01933396 -0.04676542 0.009373052 -0.08425313 -0.011228345
-0.056630153 -0.10281985 -0.12334902 -0.006105471 -0.041100945 -0.11854497 0.0021384545 -0.04189272
-0.07738469 0.013774473 -0.18080938 -0.1339912 -0.097157165 -0.004435881 -0.02435603 -0.02956339
-0.0026462886 0.00029564332 0.037752785 -0.0018422244 -0.09379944 -0.014019869 -0.033385683 -0.12146897
0.02649719 -0.025972463 -0.023011614 -0.015343607 0.05559121 0.08011885 0.009948172 -0.03965915
0.035687484 0.08288145 -0.025695974 0.02054604 0.031818584 -0.21789518 -0.1760796 -0.035666548
0.061527465 -0.06415351 -0.023234732 0.059447672 -0.039931905 -0.24548826 -0.13609762 -0.26358557
0.018326264 -0.034768175 -0.067913026 0.067371964 0.012224386 0.004874756 -0.04735295 -0.006512046
-0.06314431 0.016050402 -0.028656172 -0.12787369 0.060176793 0.06401052 -0.032516062 -0.054699212
-0.046283297 -0.13980934 0.06439677 0.047557984 0.04356409 0.04968698 3.386498e-05 -0.027653312
-0.034049682 -0.066799134 0.081718765 -0.008952358 0.016155738 -0.079404026 0.060967136 0.04893273
-0.05691757 -0.039943937 -0.0017339822 -0.04241271 -0.15167814 -0.253087 -0.19939004 -0.14990488
-0.27487597 -0.0847051 -0.0384711 -0.11299116 -0.0280926 -0.118141055 -0.0054827677 0.065092325
-0.17826423 -0.08400451 0.032558028 0.15125464 0.10135834 0.05854638 -0.06624835 -0.06199622
0.070285425 0.019671878 0.012898336 -0.016343385 -0.07868916 0.05672925 -0.009084622 -0.013356598
0.048342623 0.02167531 -0.09639047 -0.0068600588 0.12229716 0.02044065 0.016791346 -0.073830426
-0.04361885 -0.070474245 -0.15803063 0.016831435 -0.025572315 -0.011452948 -0.12571217 -0.15329626
-0.05972331 -0.025410851 0.29985496 -0.02936605 -0.17014559 -0.08164945 -0.0027777494 0.25490728
0.11540701 -0.13044874 0.014173827 -0.041219044 -0.010491255 -0.0484691 -0.060007956 -0.027130065
-0.0054612653 -0.05428814 0.0122791 -0.094988756 -0.1044536 -0.08919148 0.038481377 -0.07159384
-0.09620842 0.07904279 -0.002039168 0.051482216 0.05946204 0.056734644 -0.03546594 -0.013593032
00000000: cb51 e3bc 8035 1abd 6a3d 9ebd ca44 99bd
00000010: a66c a7bc abd9 d63b b62b d6bc 2b15 98bc
00000020: 5281 983d 6dcf 40be 2c1a 1bbe 3ecc 8abd
00000030: b6d8 d3bd b2b0 1f3c 39f0 86bd 8a57 c7bd
00000040: 4c71 f5bd 7155 99bd 50b1 43be 29c3 aebd
00000050: 8260 40be 63df b33c b5af 8fbd 0fa6 213d
00000060: 6329 843c 9540 0e3d fdc3 50bc 1d3a a63c
00000070: 8c22 d93c f0f2 9f3c 6b6b 9d3c c01d 9b3d
00000080: 35ab ac3c f2ef d3bb eccd 023d 7124 d63d
00000090: 3126 9abd 9b1b 5dbd 1856 513d 0d87 e73d
000000a0: b6fa bebb 8d1f 79bd d44d 0cbe 2a98 11be
000000b0: 5bd1 14be b2a6 7d3c 3a16 633c 1c8b 3ebc
000000c0: e0f2 b0bd 4416 3ebd ed62 60bd a6cf e33b
000000d0: c5b6 83bd 6220 a9bd e3b2 313d e04e a53c
000000e0: e30f 883d 1ad7 a03d 1652 053d 9b7d 36bd
000000f0: 78f3 48bd f35f 86bd 8e8c 113d 05b4 4d3d
00000100: 0c8b 90bd 2b41 073e 5b8a 3d3e 20e9 363b
00000110: 88ae d5bc 756e 1a3e f1c7 223c 3628 0d3e
00000120: d645 863d b5e0 a13d a1fa 79bd 5c64 ad3c
00000130: 8a75 ce3d ffde 133d f1b9 39bc 8be5 30be
00000140: 923f 20be db67 bdbd 3c10 70be 9cfc 603d
00000150: 99c7 0dbd d505 debd d164 10be 0060 0fbd
00000160: e4ce 683d 6f3c 8fbb b8f9 5ebd 4162 9ebc
00000170: 198d 3fbd 6e91 193c e88c acbd 18f7 37bc
00000180: 05f5 67bd 3793 d2bd 699e fcbd 6710 c8bb
00000190: 7759 28bd b5c7 f2bd 5025 0c3b b397 2bbd
000001a0: dd7b 9ebd 54ae 613c 1826 39be fd34 09be
000001b0: 56fa c6bd de5a 91bb 4c86 c7bc ec2e f2bc
000001c0: 5b6d 2dbb 9300 9b39 aaa2 1a3d cb76 f1ba
000001d0: ec19 c0bd 98b3 65bc 6dbf 08bd b9c4 f8bd
000001e0: a310 d93c 34c4 d4bc da82 bcbc c163 7bbc
000001f0: 9cb3 633d 5a15 a43d a8fd 223c a271 22bd
00000200: 0a2d 123d c0bd a93d 5d80 d2bc 2b50 a83c
00000210: 3454 023d ea1f 5fbe 364e 34be 1617 12bd
00000220: 3904 7c3d ea62 83bd c456 bebc 677f 733d
00000230: a38f 23bd 4661 7bbe 2d5d 0bbe b0f4 86be
00000240: f620 963c 1369 0ebd fc15 8bbd 50fa 893d
00000250: cb48 483c 6bbc 9f3b 2bf5 41bd 0063 d5bb
00000260: ce51 81bd 227c 833c 59c0 eabc 52f1 02be
00000270: f17b 763d f317 833d 902f 05bd 480c 60bd
00000280: 8e93 3dbd 2e2a 0fbe 74e2 833d 29cc 423d
00000290: 4270 323d 9384 4b3d 3f0a 0e38 3389 e2bc
000002a0: ae77 0bbd fccd 88bd 2b5c a73d e9ac 12bc
000002b0: 0a59 843c 949e a2bd adb8 793d b06d 483d
000002c0: 6622 69bd 419c 23bd ca46 e3ba f3b8 2dbd
000002d0: 8451 1bbe 9f94 81be e72c 4cbe aa80 19be
000002e0: 8bbc 8cbe de79 adbd df93 1dbd e967 e7bd
000002f0: 7422 e6bc f0f3 f1bd caa8 b3bb 204f 853d
00000300: e68a 36be 8e0a acbd 915b 053d 7fe2 1a3e
00000310: f694 cf3d 54ce 6f3d 37ad 87bd c0ef 7dbd
00000320: cef1 8f3d eb26 a13c 8b53 533c 90e2 85bc
00000330: c827 a1bd ee5c 683d abd7 14bc a2d5 5abc
00000340: ea02 463d 6b90 b13c 5e68 c5bd 58ca e0bb
00000350: ef76 fa3d 2673 a73c 018e 893c 6834 97bd
00000360: aea9 32bd cd54 90bd c8d2 21be 14e2 893c
00000370: 087d d1bc 25a5 3bbc b1ba 00be b2f9 1cbe
00000380: 6ea0 74bd 6b2a d0bc 9786 993e 1291 f0bc
00000390: a53a 2ebe d437 a7bd e70a 36bb 3583 823e
000003a0: 835a ec3d 5b94 05be 5739 683c 4dd5 28bd
000003b0: 83e3 2bbc 8987 46bd e7ca 75bd df3f debc
000003c0: 6af4 b2bb 3e5d 5ebd 472e 493c 7789 c2bd
000003d0: c5eb d5bd 06aa b6bd a69e 1d3d cb9f 92bd
000003e0: ec08 c5bd 30e1 a13d 90a3 05bb 04df 523d
000003f0: 788e 733d 9662 683d bc44 11bd 4fb5 5ebc

cnn_model_1.conv2.0.bias f4 [32]
-0.02225571 0.117722616 -0.12491309 0.0139868595 -0.07079764 -0.02073631 0.050198417 -0.057744946
0.024718855 0.011616907 0.030457236 -0.034033373 -0.08614794 0.123578176 -0.021782298 0.06285293
-0.03257973 -0.13148743 -0.025553867 0.019092675 -0.009621071 -0.033202056 0.023644486 -0.09899025
-0.009335572 -0.09628317 -0.042179458 -0.12258446 0.03910316 0.04435431 0.05927228 -0.09931512
00000000: 9b51 b6bc 8e18 f13d 6fd2 ffbd 2429 653c
00000010: 5afe 90bd 32df a9bc db9c 4d3d f785 6cbd
00000020: 327f ca3c d754 3e3c 7481 f93c 9466 0bbd
00000030: 556e b0bd 8e16 fd3d ca70 b2bc 09b9 803d
00000040: 5372 05bd a4a4 06be 5856 d1bc 3e68 9c3c
00000050: b2a1 1dbc e1fe 07bd 15b2 c13c 66bb cabd
00000060: 3af4 18bc 1c30 c5bd 5ec4 2cbd 900d fbbd
00000070: a32a 203d ddac 353d 7ec7 723d ba65 cbbd

cnn_model_1.conv3.0.weight f4 [64, 32, 3, 3]
0.048270136 -0.033058606 -0.06563541 -0.033499237 0.0056181764 0.04595202 -0.023404507 -0.030633125
-0.08358519 -0.07731381 -0.09235084 0.0033001024 -0.002524935 0.0066387625 -0.060451556 -0.0052804053
-0.068015784 0.0098018665 0.016091622 -0.034121007 0.016155012 0.023767237 0.018718027 0.051709518
0.03490568 -0.03858316 -0.031262755 -0.0370465 -0.041123405 0.0387198 -0.009681741 -0.027010238
0.010618351 0.014471812 0.024045387 0.050875045 0.007891301 -0.03609909 0.02633826 0.012611647
-0.003683025 -0.08852219 0.027960772 0.022069398 -0.050091878 -0.04573359 -0.036482953 -0.019797444
0.016254794 -0.014955468 -0.053322285 0.032675184 0.030527664 0.027306793 -0.034618106 -0.11869166
-0.006648516 -0.047829874 0.006026418 -0.09363954 -0.029146273 -0.04134342 -0.0265893 0.0013345161
0.008421559 -0.0036859037 0.031531546 0.023493633 -0.012557622 -0.010670852 0.017026763 -0.042025425
-0.041287072 -0.022194637 -0.041344736 0.021146633 -0.04431236 -0.049194556 -0.061553594 0.033024453
-0.036444623 -0.008008993 0.0029275229 0.010013745 -0.04839042 -0.0006340635 -0.04182736 -0.014581035
-0.037032984 0.048849955 -0.04835255 -0.059202366 0.024915678 -0.01060295 -0.06317448 0.04146146
0.049953576 -0.018997759 -0.01429602 -0.00490703 -0.016803281 0.0068147173 -0.039838847 -0.008077854
0.009044914 -0.01572965 0.017825572 0.03043109 -0.005529054 0.02142321 -0.039277658 -0.019208744
-0.04032891 -0.008102474 -0.049916036 0.017395122 0.010777751 0.06229024 0.0021825095 -0.014540904
-0.0093843145 -0.047741685 -0.07251436 0.023425192 -0.061252024 -0.054672174 -0.065529056 -0.06283922
0.019355781 -0.0072796117 -0.002025053 -0.018298108 -0.03477465 0.01732055 -0.035320714 0.0030273043
-0.052955054 -0.0024837176 -0.07175812 -0.08582517 -0.0075480016 -0.041937932 -0.08486275 -0.032510012
-0.018556917 -0.022651907 0.020633638 -0.046133604 -0.01772064 -0.013799849 -0.028692652 -0.0031024073
-0.004154906 0.16903107 -0.04970333 0.047338143 0.14481589 -0.04770312 0.15468028 0.08251427
-0.01731862 0.03739549 -0.012163259 -0.0047069304 -0.07409236 -0.0011800698 -0.066757165 -0.007481506
0.005038627 -0.07092174 0.0031255817 -0.031646535 -0.0523966 -0.06690955 -0.0043898663 -0.012011534
-0.0059422124 -0.0076485537 0.03881519 0.041502945 0.043745235 0.04516129 -0.058051933 -0.026494743
0.0059697903 0.029465137 -0.011065359 0.004162448 -0.036722768 -0.031202676 -0.058374852 -0.054334786
-0.034775924 -0.045776825 0.031917725 -0.045510527 -0.028337829 -0.02736456 -0.004933335 0.0056413678
-0.04678083 0.01654273 0.03403328 -0.04980081 0.027156433 -0.03278319 -0.021437356 -0.014386063
0.044636052 0.031361926 -0.059279505 -0.0013896242 0.029902825 -0.0110359965 0.037362754 0.0066929413
-0.062998824 -0.05550464 -0.0141558675 0.0332699 -0.057641305 -0.050373238 -0.045857772 0.008026551
0.029091902 -0.041632008 0.050610438 -0.04986928 0.0210944 0.049978793 0.006759978 0.008489869
0.03993375 0.056110002 -0.01564386 -0.026305217 -0.067270376 0.00033132805 -0.013463997 -0.04030329
-0.0030382127 0.012868352 -0.018971806 -0.075058736 -0.0573288 -0.046140578 0.0155140525 0.0072593926
0.0384824 -0.042536993 0.0662336 0.046674214 -0.050533876 -0.062162053 0.033951797 -0.025524136
00000000: e8b6 453d 7668 07bd dc6b 86bd 7f36 09bd
00000010: ae18 b83b 2f38 3c3d cfba bfbc 52f2 fabc
00000020: b62e abbd b456 9ebd 7022 bdbd 8846 583b
00000030: 6179 25bb fa89 d93b 0d9c 77bd 4007 adbb
00000040: dc4b 8bbd 0298 203c 94d2 833c 78c2 0bbd
00000050: 8457 843c 82b3 c23c 8c56 993c 5ccd 533d
00000060: 42f9 0e3d 6009 1ebd 600d 00bd 12be 17bd
00000070: 0471 28bd a798 1e3d 2aa0 1ebc 9344 ddbc
00000080: 98f8 2d3c 2e1b 6d3c d5fa c43c 5a62 503d
00000090: 844a 013c a4dc 13bd 56c3 d73c 15a1 4e3c
000000a0: e85e 71bb 1f4b b5bd fd0d e53c e2ca b43c
000000b0: 242d 4dbd 2553 3bbd 266f 15bd 402e a2bc
000000c0: c628 853c c707 75bc 7868 5abd 6ad6 053d
000000d0: 2715 fa3c 7fb2 df3c b7cb 0dbd 9d14 f3bd
000000e0: cbdb d9bb 42e9 43bd 4279 c53b 16c6 bfbd
000000f0: 2ac4 eebc b857 29bd ced1 d9bc eeea ae3a
00000100: 94fa 093c 348f 71bb 3927 013d b875 c03c
00000110: 7cbe 4dbc ccd4 2ebc b67b 8b3c da22 2cbd
00000120: a21c 29bd 87d1 b5bc 1959 29bd b43b ad3c
00000130: e180 35bd 3b80 49bd 9f1f 7cbd a644 073d
00000140: f546 15bd 2738 03bc afdb 3f3b b110 243c
00000150: 0835 46bd 4837 26ba 2a53 2bbd 4be5 6ebc
00000160: e6af 17bd e416 483d 530d 46bd 2e7e 72bd
00000170: f71b cc3c ffb7 2dbc 9f61 81bd 7ed3 293d
00000180: 1f9c 4c3d 30a1 9bbc db39 6abc 27cb a0bb
00000190: 09a7 89bc fe4d df3b 0f2e 23bd fa58 04bc
000001a0: 1e31 143c 78db 80bc ef06 923c 9f4a f93c
000001b0: 112d b5bb ba7f af3c 9ce1 20bd a85b 9dbc
000001c0: ed2f 25bd 3dc0 04bc c274 4cbd 3780 8e3c
000001d0: 2a95 303c 0d24 7f3d 6f08 0f3b f93c 6ebc
000001e0: abc0 19bc c98c 43bd 6982 94bd 30e6 bf3c
000001f0: 67e3 7abd eeef 5fbd 1934 86bd d9b1 80bd
00000200: 0490 9e3c cf89 eebb c0b6 04bb eae5 95bc
00000210: dd6f 0ebd d3e3 8d3c 74ac 10bd bd65 463b
00000220: 66e7 58bd dec5 22bb ecf5 92bd 1bc5 afbd
00000230: 3a55 f7bb 1cc7 2bbd 85cc adbd 3829 05bd
00000240: ad04 98bc 7e90 b9bc e007 a93c 97f6 3cbd
00000250: e02a 91bc c318 62bc da0c ebbc c251 4bbb
00000260: e125 88bb 7b16 2d3e b895 4bbd a4e5 413d
00000270: 9e4a 143e 5964 43bd 8264 1e3e 3efd a83d
00000280: c7df 8dbc 032c 193d 6848 47bc 983c 9abb
00000290: bcbd 97bd 92ac 9aba fbb7 88bd 6c27 f5bb
000002a0: 111b a53b 6b3f 91bd 8fd6 4c3b cc9f 01bd
000002b0: d19d 56bd e007 89bd ded8 8fbb 06cc 44bc
000002c0: e4b6 c2bb b8a0 fabb adfc 1e3d fefe 293d
000002d0: 342e 333d 0bfb 383d ddc7 6dbd 810b d9bc
000002e0: 3b9e c33b df60 f13c 7b4b 35bc 2565 883b
000002f0: 9d6a 16bd c19c ffbc 781a 6fbd 278e 5ebd
00000300: 3371 0ebd 7b80 3bbd 29bc 023d 3f69 3abd
00000310: bc24 e8bc a42b e0bc d0a7 a1bb 39db b83b
00000320: 419d 3fbd 9f84 873c 7b66 0b3d effb 4bbd
00000330: 2b77 de3c ab47 06bd 659d afbc 86b3 6bbc
00000340: 4bd4 363d 5d75 003d 11cf 72bd 0d24 b6ba
00000350: c5f6 f43c 53d0 34bc b009 193d 7650 db3b
00000360: 8705 81bd d558 63bd 03ee 67bc 0546 083d
00000370: 4a19 6cbd 2b54 4ebd 5cd5 3bbd cc81 033c
00000380: 2452 ee3c 5386 2abd e44c 4f3d bb43 4cbd
00000390: 2ace ac3c 90b6 4c3d ce82 dd3b 1719 0b3c
000003a0: 9291 233d 9ad3 653d 8d27 80bc 0a7e d7bc
000003b0: 0dc5 89bd 19b6 ad39 1998 5cbc 1015 25bd
000003c0: c01c 47bb c8d5 523c c36a 9bbc 65b8 99bd
000003d0: 9bd1 6abd e7fd 3cbd a72e 7e3c 33e0 ed3b
000003e0: b99f 1d3d 453b 2ebd 7ba5 873d 762d 3f3d
000003f0: 9cfc 4ebd a39d 7ebd 0a11 0b3d fe17 d1bc

cnn_model_1.conv3.0.bias f4 [64]
-0.02389969 -0.05226569 -0.0365135 -0.07248569 -0.016226575 -0.02762165 -0.047485415 0.012884261
-0.08100236 -0.011671018 -0.02365907 -0.10425923 -0.05268824 -0.054766975 -0.027289884 -0.08917119
-0.02716049 0.04966239 -0.012312241 -0.05737226 -0.025182215 -0.038240805 -0.012484639 0.061617076
-0.017860673 -0.014374168 -0.030203795 -0.012386252 -0.06785545 -0.059650864 -0.013384907 -0.057259787
-0.04116326 -0.029152082 -0.08092134 -0.058910497 -0.05049519 -0.042503063 -0.041884832 -0.04952871
-0.03861127 -0.021512322 -0.039144788 -0.035879638 -0.03703707 -0.08065965 -0.031085646 -0.071247526
0.07849659 0.04952833 0.036659367 -0.02260731 0.023050057 -0.064725205 0.052385967 -0.025907528
-0.047237746 -0.038031407 -0.11913216 0.09102902 -0.037663195 -0.03965455 -0.07957915 0.03987727
00000000: 48c9 c3bc 8c14 56bd 2e8f 15bd 6173 94bd
00000010: 98ed 84bc cc46 e2bc 1180 42bd 8218 533c
00000020: 91e4 a5bd cc37 3fbc aad0 c1bc dd85 d5bd
00000030: a0cf 57bd 5653 60bd 098f dfbc 639f b6bd
00000040: ad7f debc ca6a 4b3d 48b9 49bc 2dff 6abd
00000050: ef4a cebc 64a2 1cbd 5f8c 4cbc 3062 7c3d
00000060: 8c50 92bc a181 6bbc f36d f7bc b5ef 4abc
00000070: ccf7 8abd 7754 74bd 5e4c 5bbc 3d89 6abd
00000080: ce9a 28bd 59d0 eebc 16ba a5bd 224c 71bd
00000090: 0bd4 4ebd b117 2ebd 6e8f 2bbd 9ede 4abd
000000a0: da26 1ebd 9c3a b0bc 4956 20bd 87f6 12bd
000000b0: 2fb4 17bd e330 a5bd 53a7 febc 39ea 91bd
000000c0: d2c2 a03d 38de 4a3d 2228 163d f732 b9bc
000000d0: 79d3 bc3c a68e 84bd ab92 563d 063c d4bc
000000e0: 5e7c 41bd d2c6 1bbd 90fb f3bd 6c6d ba3d
000000f0: b944 1abd cf6c 22bd 65fa a2bd 5956 233d

cnn_model_2.conv5.weight f4 [64, 64, 5, 5]
0.034717537 -0.014656969 -0.014814927 0.023641115 -0.05857687 0.011499248 -0.009258253 -0.020784134
0.024498893 -0.01838867 0.011853613 0.015263891 -0.009564644 -0.038961872 -0.041067 0.0002607293
-0.0060210926 -0.018236252 -0.006268613 -0.010789612 0.019574974 0.0041596475 -0.03371464 0.053747837
0.02916833 0.026942566 0.016090915 -0.04206704 -0.02016937 -0.0074219145 -0.07855218 0.022245985
0.027484104 0.061169755 0.0372134 0.05016898 0.040663805 0.023733292 -0.048626754 -0.015021663
0.029096816 -0.010470072 -0.010700549 0.015336361 0.022028577 -0.002036995 0.027647931 -0.0087277815
0.011967322 0.012576366 -0.07561202 -0.04877973 -0.056405947 -0.0017013199 -0.017371202 -0.015142153
-0.018189775 -0.046971917 -0.055626262 -0.022466106 -0.013010436 -0.0033157943 -0.042754784 0.023994198
0.0056937956 0.018534614 0.012468635 -0.035774942 -0.0136643285 -0.0300521 -0.050015613 0.042529512
-0.009741948 0.016541194 0.005160128 -0.018758766 0.031472355 0.020214463 0.02756903 0.0072046504
0.065373234 0.07880419 0.09590596 0.06315972 0.07111513 0.003948021 0.025014795 0.02886538
0.008697991 -0.0042502484 -0.028972294 0.0055666245 -0.044576656 -0.034884755 -0.008387393 -0.006259705
-0.018916536 -0.053473353 -0.051699273 -0.028033866 -0.033852108 0.014370311 -0.027954545 0.019381152
0.017171202 0.005194618 0.029675623 0.017850256 -0.013797584 0.016023606 -0.014059641 -0.009775582
-0.00013648711 -0.02967426 -0.013761977 0.024009855 0.021125294 -0.0076795463 0.008738399 -0.014053157
-0.010680055 -0.017366918 0.023640169 0.008920226 -0.015519393 -0.034465548 0.026257804 0.011286367
0.03448165 -0.050065927 0.020117281 -0.0027488586 -0.024830613 -0.043948807 0.04189992 0.027093194
0.025212452 0.021777889 -0.0011252258 -0.010773896 0.013873247 0.03453116 0.0045788293 -0.0066793547
0.01770262 0.04039224 0.06998786 0.02141321 0.0014016982 0.022414371 0.006501498 -0.02365663
9.4081974e-05 -0.022226593 0.015233221 -0.010941729 -0.011372271 0.02436556 -0.011932105 0.006531506
-0.010285734 -0.019413976 -0.007964329 0.0034758085 -0.00066927815 0.010259919 0.032610014 -0.010921795
-0.019941458 -0.021482995 0.023153698 0.013113798 -0.014631568 0.021896612 0.024229413 -0.16898142
-0.03336346 -0.034960516 -0.20625287 -0.024988944 -0.0788006 -0.037107527 -0.06283269 -0.13895687
0.01686163 -0.013393955 0.065488234 0.046092775 -0.15313129 -0.021882163 0.027238496 0.065655865
0.08092209 0.04144861 0.093534 -0.09416983 -0.13454702 0.045961305 -0.09603693 -0.020714188
0.038317114 0.007331926 0.03630376 -0.0077119344 0.013089517 0.036108434 0.029008135 0.05127822
0.020274412 -0.031499147 0.06723782 0.004187312 0.024418613 0.04749553 -0.01801066 0.009805282
-0.007909197 0.05073714 -0.018945593 -0.05613667 0.0073786573 -0.0372251 0.046087246 -0.012700027
-0.03107571 0.0084227845 -0.00019529689 0.006090677 0.0039244085 -0.02631446 0.016299093 0.016510038
0.020131256 0.007827805 -0.010914093 0.054961137 0.03406617 0.007717587 0.049922 0.004464813
-0.017126197 0.004762858 0.0055274395 -0.009668404 0.010805001 -0.023342973 0.0014814937 -0.02754786
0.02280341 0.032595005 0.023389317 -0.08260462 0.0016994765 -0.021450294 -0.04303215 0.018288149
00000000: fa33 0e3d c923 70bc 4fba 72bc 03ab c13c
00000010: 4dee 6fbd 5867 3c3c edaf 17bc 7d43 aabc
00000020: e7b1 c83c d6a3 96bc a835 423c 6615 7a3c
00000030: 06b5 1cbc 7c96 1fbd df35 28bd 7fb2 8839
00000040: 964c c5bb 3164 95bc f068 cdbb eac6 30bc
00000050: b25b a03c a74d 883b 5d18 0abd b126 5c3d
00000060: 6cf2 ee3c a8b6 dc3c 18d1 833c 7d4e 2cbd
00000070: 3c3a a5bc 8833 f3bb f7df a0bd 363d b63c
00000080: 5826 e13c 238d 7a3d 146d 183d fd7d 4d3d
00000090: 178f 263d 526c c23c d92c 47bd 6c1d 76bc
000000a0: 725c ee3c aa8a 2bbc 5b51 2fbc 5c45 7b3c
000000b0: 4675 b43c 1b7f 05bb ea7d e23c f8fe 0ebc
000000c0: 9612 443c 1a0d 4e3c 7ada 9abd 41cd 47bd
000000d0: ec09 67bd d3fe deba 0d4e 8ebc cb16 78bc
000000e0: b902 95bc a065 40bd 5dd8 63bd d70a b8bc
000000f0: b929 55bc cc4d 59bb a41f 2fbd 7b8f c43c
00000100: 0593 ba3b e7d5 973c 3f49 4c3c bf88 12bd
00000110: 59e0 5fbc d22f f6bc 2cdd 4cbd 6d33 2e3d
00000120: b19c 1fbc 6681 873c 4b16 a93b fcab 99bc
00000130: 28e9 003d cd98 a53c 72d8 e13c fd14 ec3b
00000140: 67e2 853d 1764 a13d 586a c43d e259 813d
00000150: cfa4 913d 675e 813b d4eb cc3c 1777 ec3c
00000160: 0582 0e3c ab45 8bbb 4e57 edbc 3b68 b63b
00000170: 0396 36bd 51e3 0ebd 476b 09bc 361e cdbb
00000180: daf6 9abc e006 5bbd 9ec2 53bd 47a7 e5bc
00000190: 82a8 0abd 7471 6b3c ee00 e5bc 39c5 9e3c
000001a0: 9faa 8c3c 9d37 aa3b 4b1a f33c b33a 923c
000001b0: 430f 62bc f043 833c 695a 66bc c329 20bc
000001c0: fb1d 0fb9 6f17 f3bc ea79 61bc 51b0 c43c
000001d0: f40e ad3c b4a4 fbbb 802b 0f3c 363f 66bc
000001e0: 66fb 2ebc 1145 8ebc 07a9 c13c 2426 123c
000001f0: 0d45 7ebc bf2b 0dbd 9b1a d73c 74ea 383c
00000200: a13c 0d3d ee11 4dbd ffcc a43c 3226 34bb
00000210: 9269 cbbc aa03 34bd 409f 2b3d 8cf2 dd3c
00000220: 588a ce3c 8b67 b23c 507c 93ba ff84 30bc
00000230: 9e4c 633c 8c70 0d3d 010a 963b 7dde dabb
00000240: 1605 913c 5572 253d cc55 8f3d c26a af3c
00000250: 30b9 b73a 589e b73c 850a d53b 8dcb c1bc
00000260: e04d c538 8b14 b6bc c394 793c f044 33bc
00000270: c352 3abc 489a c73c e07e 43bc 3e06 d63b
00000280: 7f85 28bc 0f0a 9fbc d17c 02bc 64ca 633b
00000290: 7f72 2fba 3819 283c 1492 053d 54f1 32bc
000002a0: 455c a3bc 1bfd afbc d3ac bd3c 41db 563c
000002b0: 3fb9 6fbc 8660 b33c c37c c63c 7709 2dbe
000002c0: 20a8 08bd c232 0fbd f433 53be 9db5 ccbc
000002d0: 3562 a1bd 10fe 17bd 6dae 80bd b64a 0ebe
000002e0: 6721 8a3c 5272 5bbc b21e 863d c7cb 3c3d
000002f0: 73ce 1cbe 3942 b3bc 4423 df3c 9576 863d
00000300: 7bba a53d 05c6 293d c18e bf3d 1ddc c0bd
00000310: b2c6 09be ec41 3c3d 03af c4bd cdb0 a9bc
00000320: 68f2 1c3d a740 f03b 40b3 143d 65b4 fcbb
00000330: 6a75 563c 70e6 133d 78a2 ed3c 1c09 523d
00000340: 8616 a63c 4005 01bd fbb3 893d b835 893b
00000350: 8b09 c83c ac8a 423d 178b 93bc 55a6 203c
00000360: 9495 01bc bfd1 4f3d ca33 9bbc 91ef 65bd
00000370: aac8 f13b 5979 18bd fbc5 3c3d c613 50bc
00000380: 7d92 febc b8ff 093c 9cc8 4cb9 4d94 c73b
00000390: 5398 803b 6c91 d7bc ad85 853c 0f40 873c
000003a0: 4eea a43c 3240 003c 06d1 32bc ee1e 613d
000003b0: f888 0b3d d0e3 fc3b 037b 4c3d 914d 923b
000003c0: 3d4c 8cbc c011 9c3b 861f b53b 3a68 1ebc
000003d0: 7507 313c c339 bfbc ae2e c23a 0dac e1bc
000003e0: 38ce ba3c 5782 053d f49a bf3c 9c2c a9bd
000003f0: f8c0 de3a 87b8 afbc 7b42 30bd 07d1 953c

cnn_model_2.conv5.bias f4 [64]
-0.009493815 0.031149106 0.013249622 -0.030846078 -0.020169389 -0.0013516517 0.025506118 -0.0252265
-0.039032087 -0.026064577 0.026021596 -0.017911315 -0.08722729 -0.0047039306 -0.025213614 0.00059463654
-0.025306413 0.013218964 -0.0020691003 0.00026037052 0.0012860573 0.010231403 0.06284083 0.005590404
-0.02172385 0.029209398 0.027688049 -0.008633463 0.027343597 -0.02522223 -0.024619918 0.023393396
-0.007501463 -0.025473664 0.018543845 -0.038995996 0.039719075 0.017412258 -0.0208465 -0.015543873
0.022261573 -0.032305233 0.01255551 -0.04303246 -0.01502621 -0.013065788 -0.0042970832 -0.011628982
-0.040586226 -0.023286551 0.035652347 0.033607185 0.013986883 0.008026134 -0.005748641 0.017014595
0.004932631 -0.030761143 -0.0017551568 -0.026815167 -0.021039056 0.026614182 0.024068626 -0.007635235
00000000: f28b 1bbc 692c ff3c f114 593c eab0 fcbc
00000010: 463a a5bc e829 b1ba 35f2 d03c cea7 cebc
00000020: 1ce0 1fbd 6185 d5bc 3e2b d53c c0ba 92bc
00000030: 39a4 b2bd 6e23 9abb c88c cebc 62e1 1b3a
00000040: 654f cfbc 5b94 583c be99 07bb 5782 8839
00000050: ec90 a83a 9da1 273c b1b2 803d b52f b73b
00000060: 37f6 b1bc 8c48 ef3c 0cd2 e23c 5e73 0dbc
00000070: aeff df3c da9e cebc b6af c9bc 82a3 bf3c
00000080: d5ce f5bb 25ae d0bc 43e9 973c 44ba 1fbd
00000090: 78b0 223d 27a4 8e3c 47c6 aabc bbab 7ebc
000000a0: e75d b63c 7e52 04bd a0b5 4d3c ce42 30bd
000000b0: 7e30 76bc e311 56bc 8cce 8cbb 7c87 3ebc
000000c0: be3d 26bd 70c3 bebc 3208 123d b0a7 093d
000000d0: 3d29 653c 0c80 033c 195f bcbb 3162 8b3c
000000e0: e8a1 a13b cbfe fbbc 4a0d e6ba 7bab dbbc
000000f0: 195a acbc fc05 da3c 912b c53c fe30 fabb

cnn_model_2.bn5.weight f4 [64]
1.214805 0.9702694 0.9352291 1.3123966 0.81330854 0.9464977 1.168711 0.9041469
1.1580907 0.91182244 1.1686448 1.1192048 1.0171502 0.9137419 1.087352 0.74334925
1.0715545 0.5126105 1.1284237 0.76725334 0.8603112 0.95801353 1.1641307 1.1500944
0.8527298 1.0400437 1.0743335 0.91939145 1.095282 0.9048829 0.79944885 1.1995902
0.7976952 0.735935 0.8643931 1.1469697 1.3515149 0.88091874 1.0321807 1.0952562
0.9089769 1.0153915 1.1985874 1.0573789 0.85586977 0.8406902 0.87443876 1.085777
0.97801894 1.0367798 0.96718967 0.86994344 1.0965846 1.0515606 0.85236627 0.9372222
1.2990379 0.48421466 0.62481266 0.7252519 0.99462974 0.96051145 1.0549362 0.999527
00000000: bb7e 9b3f 9363 783f 2d6b 6f3f 9dfc a73f
00000010: fd34 503f ac4d 723f 5298 953f 2c76 673f
00000020: 513c 943f 326d 693f 2796 953f 1a42 8f3f
00000030: fa31 823f fdea 693f 5a2e 8b3f 234c 3e3f
00000040: b328 893f 713a 033f 3070 903f b76a 443f
00000050: 5b3d 5c3f 6040 753f 3c02 953f 4b36 933f
00000060: 804c 5a3f 2720 853f c383 893f 3d5d 6b3f
00000070: 3332 8c3f 68a6 673f aea8 4c3f 2c8c 993f
00000080: c135 4c3f 3c66 3c3f de48 5d3f e7cf 923f
00000090: 71fe ac3f e483 613f 7f1e 843f 5b31 8c3f
000000a0: b6b2 683f 59f8 813f 506b 993f 3158 873f
000000b0: 481a 5b3f 7937 573f 38db 5f3f befa 8a3f
000000c0: 735f 7a3f 33b5 843f be99 773f 9db4 5e3f
000000d0: e25c 8c3f 8a99 863f ad34 5a3f cbed 6f3f
000000e0: e046 a63f fcea f73e b9f3 1f3f 1caa 393f
000000f0: 0ea0 7e3f 14e4 753f 2608 873f 00e1 7f3f

cnn_model_2.bn5.bias f4 [64]
0.064516805 0.120565474 -0.24660939 0.2604227 -0.110614814 -0.28943527 0.1835768 0.048292145
0.007913217 0.043751657 0.049376745 0.039222952 0.09665008 -0.24569654 -0.0076191495 -0.0039184727
0.028688645 -0.06980156 0.18429486 -0.06660278 -0.07106031 -0.07420489 0.26290703 0.13887951
0.033061653 -0.012631316 0.13448593 -0.21685444 0.0017674637 -0.15578012 0.10203694 0.16641553
-0.2679261 0.066888876 -0.13349864 0.10071001 0.12654331 -0.26112327 0.07454616 -0.044371277
-0.20699166 0.12909216 0.18317509 0.01953086 -0.0560974 -0.30110046 -0.15572387 -0.015117476
-0.20561859 0.011547957 -0.2313918 -0.28286907 -0.0059687067 -0.038884852 0.07722233 -0.20602216
0.12646984 0.05663741 -0.07298692 0.021180622 -0.119053476 0.09223422 0.0353925 -0.02926407
00000000: 6321 843d 08eb f63d 2c87 7cbe 2056 853e
00000010: 058a e2bd dc30 94be 8ffb 3b3e fccd 453d
00000020: 70a6 013c f034 333d 453f 4a3d 3fa8 203d
00000030: 7af0 c53d e097 7bbe 0faa f9bb 8866 80bb
00000040: 7304 eb3c 1ff4 8ebd cbb7 3c3e 0a67 88bd
00000050: 1188 91bd bcf8 97bd c09b 863e 6e36 0e3e
00000060: a86b 073d 94f3 4ebc aeb6 093e 170f 5ebe
00000070: 3eaa e73a d384 1fbe bef8 d03d d568 2a3e
00000080: 9c2d 89be 09fd 883d deb3 08be 0d41 ce3d
00000090: 9294 013e f3b1 85be a8ab 983d a8be 35bd
000000a0: 9ff5 53be bc30 043e 4092 3b3e 2fff 9f3c
000000b0: 63c6 65bd d729 9abe 1476 1fbe 4aaf 77bc
000000c0: ae8d 52be a433 3d3c f9f1 6cbe 37d4 90be
000000d0: 2495 c3bb b945 1fbd be26 9e3d 79f7 52be
000000e0: 4f81 013e a1fc 673d 2b7a 95bd fc82 ad3c
000000f0: 4fd2 f3bd 4be5 bc3d baf7 103d 34bb efbc

cnn_model_2.bn5.running_mean f4 [64]
-0.8487538 0.12403229 -0.46040663 -0.46357596 1.1941484 0.29671827 -0.43719772 -0.2508748
-0.52138937 -0.106391996 -0.42963013 -0.7172069 -0.17102239 -0.70427054 -0.9455492 -0.2912351
-0.7809163 0.26085505 -0.44517562 -0.24164866 -0.0072389334 -0.21892172 -0.40174702 -0.655781
-0.33135715 -0.6289355 -0.62108755 -0.759144 -0.6535615 -1.1266133 -0.2785869 -0.80793524
1.4320389 -0.27530766 -0.0016881793 -0.69541675 -0.17539643 -1.1061305 -0.40055946 -0.32221833
-0.92604446 -0.37015918 -0.4998156 -0.95999783 -0.16361208 -0.8145351 -0.40372714 -0.45203203
-0.8002963 -0.46006966 0.41929546 -0.91320795 0.0014029457 -0.6350827 -0.33949137 -0.67722696
-1.1320714 -0.12857307 0.34025097 -0.56424826 -1.0789421 -0.6632256 -0.68113095 -0.07570735
00000000: ee47 59bf a404 fe3d 6bba ebbe d459 edbe
00000010: dbd9 983f 75eb 973e 61d8 dfbe a972 80be
00000020: c679 05bf 0ce4 d9bd 7bf8 dbbe df9a 37bf
00000030: 7e20 2fbe 134b 34bf 830f 72bf c41c 95be
00000040: 21ea 47bf cb8e 853e 0fee e3be bf72 77be
00000050: 9334 edbb 042d 60be c9b1 cdbe 43e1 27bf
00000060: a5a7 a9be eb01 21bf 98ff 1ebf 4357 42bf
00000070: ce4f 27bf dd34 90bf f1a2 8ebe d8d4 4ebf
00000080: 0d4d b73f 20f5 8cbe e645 ddba d506 32bf
00000090: 1f9b 33be af95 8dbf 2116 cdbe cdf9 a4be
000000a0: 4011 6dbf 8185 bdbe d5e7 ffbe 6bc2 75bf
000000b0: ed89 27be 5f85 50bf 53b5 cebe be70 e7be
000000c0: 38e0 4cbf 408e ebbe e5ad d63e ffc7 69bf
000000d0: 0ce3 b73a c894 22bf d0d1 adbe bf5e 2dbf
000000e0: b7e7 90bf a9a8 03be 6035 ae3e 9372 10bf
000000f0: c61a 8abf 27c9 29bf 995e 2ebf 750c 9bbd

cnn_model_2.bn5.running_var f4 [64]
1.02518 1.2522885 1.104447 0.43994552 1.6447104 0.520313 1.0466568 1.0181311
0.66585815 0.7880593 0.3914062 0.9978259 0.8222791 2.2709422 0.91146517 0.56355304
0.85019046 0.54676455 0.76593655 0.5653032 0.6571052 0.8547448 0.9099578 0.7714838
0.70661384 1.3533754 1.1344322 1.3362201 1.0547872 2.4351585 0.4718556 1.1501472
1.2642261 0.4725632 0.6342748 0.91852385 0.40951484 1.895973 0.932374 0.3387536
1.1316661 0.3479824 0.5077526 2.3189664 0.40603456 1.2566687 0.3502166 0.6324895
1.2827699 0.4305254 0.6801331 2.47821 0.71738845 0.53390217 0.6362623 1.294533
1.0461277 0.31789538 1.2819161 1.0335971 1.9529203 0.9381246 1.1820465 0.5625614
00000000: 1939 833f fd4a a03f 855e 8d3f 8a40 e13e
00000010: df85 d23f 3c33 053f daf8 853f 1f52 823f
00000020: ae75 2a3f 41be 493f 6566 c83e 8571 7f3f
00000030: e280 523f 1e57 1140 c855 693f 0345 103f
00000040: 15a6 593f c3f8 0b3f 6b14 443f b6b7 103f
00000050: 0c38 283f 8ed0 5a3f fff2 683f f67f 453f
00000060: a5e4 343f 683b ad3f 1335 913f 4309 ab3f
00000070: 4403 873f a3d9 1b40 0f97 f13e 0638 933f
00000080: 29d2 a13f cef3 f13e d55f 223f 6124 6b3f
00000090: eeab d13e 3eaf f23f 10b0 6e3f 1d71 ad3e
000000a0: 6fda 903f c02a b23e 13fc 013f f269 1440
000000b0: c3e3 cf3e 85da a03f 974f b33e d5ea 213f
000000c0: ce31 a43f d36d dc3e 341d 2e3f fe9a 1e40
000000d0: c5a6 373f d0ad 083f 16e2 223f 42b3 a53f
000000e0: 83e7 853f 2fc3 a23e d415 a43f e94c 843f
000000f0: 4bf9 f93f ef28 703f 4d4d 973f 0604 103f

cnn_model_2.conv1.weight f4 [32, 64, 3, 3]
0.05101185 0.021550218 -0.080988675 -0.052168548 -0.07053613 -0.05964851 -0.08057061 -0.05309838
0.06909085 -0.06784024 -0.06724527 -0.035565346 -0.06637154 -0.04990177 -0.0055085835 0.052074343
0.0027349726 -0.050093427 0.019829793 0.16510564 0.1481539 -0.16628946 -0.05475518 0.01760132
-0.17345071 0.03306853 0.041089512 -0.09447446 0.022582792 -0.20601389 0.24494599 0.0757087
0.031801984 0.07305883 -0.037266444 -0.07758023 0.10510154 0.038481973 0.06189978 0.049374793
-0.040083498 -0.052142873 0.18202177 0.047042236 0.010559788 0.025983555 -0.0075020865 -0.120638505
0.02846882 -0.0111724585 -0.05042858 0.17749144 0.112594076 0.21868345 -0.018371316 -0.029967533
-0.11087976 -0.06921132 -0.08010073 -0.06950803 0.045715112 0.02484611 0.19477132 -0.0006793566
-0.021691736 -0.036952086 -0.028767759 -0.07690717 -0.04211208 -0.04209296 -0.019131457 0.11153803
-0.14537442 -0.18166327 -0.10404548 0.15736064 0.23007236 0.013999342 0.043436144 0.223706
0.13272908 -0.09913063 0.017545268 -0.012134347 -0.01719703 0.11092404 0.11120874 -0.05094945
-0.06996075 -0.06721693 -0.059827924 -0.12225432 -0.15840079 0.17473944 0.20547642 -0.09520536
0.19379002 0.14972718 0.11137596 0.03803876 0.02519056 0.027731482 -0.11782467 -0.07964061
0.046384923 0.041381173 0.0068147997 0.0047627534 0.019356256 0.028794788 0.060179465 -0.026057998
0.009194742 0.0028724035 -0.01556399 -0.05727163 0.12728475 -0.050455254 0.01812597 0.09482854
-0.053173244 -0.025030259 -0.063848704 -0.067426056 -0.017779617 0.035923257 -0.064163476 0.021303905
0.08807604 -0.06773527 -0.07425124 -0.040032763 -0.12533243 -0.12721837 -0.037886288 0.091866925
0.04100559 -0.03824193 0.04021573 0.026440369 -0.17270443 0.06957364 0.022153387 0.06296066
-0.21240832 0.02039159 0.023242142 -0.1121986 -0.09831906 0.008408795 0.0035109115 -0.04270856
-0.06738971 -0.04005762 -0.06568835 -0.08267307 0.11229788 0.007300563 0.0025501426 0.06187006
0.059596315 -0.030474799 -0.13038151 0.06810945 0.11004787 -0.011977319 -0.026271835 0.093467385
0.01714902 -0.1551428 -0.120037526 0.0852192 0.047161773 0.06322135 0.04400726 0.05511338
0.013190983 0.049797025 -0.01680097 0.031625744 0.010624539 -0.05482349 0.03894463 0.009413227
0.03721738 -0.012938194 0.06611085 0.07934483 0.010302147 0.1787106 0.09360434 0.04345331
0.04714487 0.07077443 0.04202368 -0.008749806 -0.014041718 -0.048965994 0.086652815 0.036473628
0.044695266 -0.1256155 -0.12808128 -0.092996225 -0.14585795 -0.03234031 0.07875335 0.05406294
0.0214367 -0.076428495 0.018818056 0.0700193 -0.052364003 0.004469694 0.030860834 0.12143691
-0.070763595 -0.06351789 0.0358985 0.03551204 0.023636114 0.0011374536 -0.103920035 -0.08678763
-0.015593207 0.078045264 -0.01576234 -0.03361109 0.035282686 -0.047610182 -0.02781421 0.02928392
-0.060379457 0.112114996 -0.04540055 0.025247637 0.11285596 -0.10408624 0.00082077767 0.039879974
-0.098333694 -0.18701635 -0.26208046 -0.002798563 -0.04034778 -0.030173393 -0.07242719 -0.09029806
-0.029240262 -0.19637576 -0.118310966 -0.10275692 -0.1934694 -0.08651844 -0.0687896 -0.34839332
00000000: cdf1 503d 158a b03c 64dd a5bd b0ae 55bd
00000010: 3f75 90bd ff51 74bd 3402 a5bd b07d 59bd
00000020: 817f 8d3d d3ef 8abd e3b7 89bd f8ac 11bd
00000030: cded 87bd cc65 4cbd 5981 b4bb e84b 553d
00000040: 3a3d 333b c42e 4dbd 1772 a23c 7411 293e
00000050: a8b5 173e c947 2abe f846 60bd a530 903c
00000060: 109d 31be de72 073d 7a4d 283d d37b c1bd
00000070: 8cff b83c 4ef5 52be 1fd3 7a3e 2a0d 9b3d
00000080: cc42 023d de9f 953d b3a4 18bd 62e2 9ebd
00000090: 7a3f d73d 469f 1d3d a08a 7d3d 393d 4a3d
000000a0: 982e 24bd c493 55bd ea63 3a3e 5caf 403d
000000b0: f602 2d3c 77db d43c 10d4 f5bb 5211 f7bd
000000c0: 7137 e93c b00c 37bc 338e 4ebd 51c0 353e
000000d0: b997 e63d 8eee 5f3e 717f 96bc 797e f5bc
000000e0: ed14 e3bd aabe 8dbd da0b a4bd 3a5a 8ebd
000000f0: c53f 3b3d 128a cb3c 2272 473e da16 32ba
00000100: deb2 b1bc 125b 17bd 5daa ebbc 8281 9dbd
00000110: b77d 2cbd ab69 2cbd 93b9 9cbc 0d6e e43d
00000120: 08dd 14be f005 3abe cc15 d5bd 2623 213e
00000130: 1798 6b3e 7f5d 653c 19ea 313d 3013 653e
00000140: 22ea 073e 0005 cbbd 18bb 8f3c 24cf 46bc
00000150: c9e0 8cbc 252c e33d 68c1 e33d 5fb0 50bd
00000160: 9547 8fbd 08a9 89bd 200e 75bd 7960 fabd
00000170: d133 22be e5ee 323e 6968 523e 07fb c2bd
00000180: e470 463e 1552 193e 1419 e43d 88ce 1b3d
00000190: 6f5c ce3c 222d e33c 104e f1bd 9e1a a3bd
000001a0: 1efe 3d3d 4e7f 293d af4e df3b df10 9c3b
000001b0: 0391 9e3c 0ce3 eb3c be7e 763d 9577 d5bc
000001c0: 8ba5 163c ef3e 3c3b 1b00 7fbc a895 6abd
000001d0: ef56 023e 2baa 4ebd ea7c 943c 7735 c23d
000001e0: 30cc 59bd 420c cdbc 1cc3 82bd ac16 8abd
000001f0: 8fa6 91bc 4424 133d 2468 83bd 8785 ae3c
00000200: 3661 b43d cab8 8abd 0911 98bd 65f9 23bd
00000210: 2557 00be 8845 02be a72e 1bbd ba24 bc3d
00000220: 7af5 273d 92a3 1cbd 40b9 243d 7999 d83c
00000230: 6ed9 30be a07c 8e3d 057b b53c 85f1 803d
00000240: 9181 59be 440c a73c 4e66 be3c 61c8 e5bd
00000250: 815b c9bd 0bc5 093c 5217 663b 2cef 2ebd
00000260: 9e03 8abd 7513 24bd 9d87 86bd 8050 a9bd
00000270: 6efc e53d 9039 ef3b 4b20 273b 766b 7d3d
00000280: 441b 743d 49a6 f9bc bb82 05be f87c 8b3d
00000290: c760 e13d 843c 44bc 0838 d7bc d46b bf3d
000002a0: 1a7c 8c3c c1dd 1ebe 3cd6 f5bd 6787 ae3d
000002b0: b42c 413d 327a 813d f540 343d 91be 613d
000002c0: fe1e 583c f7f7 4b3d 30a2 89bc ff89 013d
000002d0: 8c12 2e3c 998e 60bd 6884 1f3d f039 1a3c
000002e0: 4071 183d b8fa 53bc 2065 873d 8b7f a23d
000002f0: 56ca 283c e9ff 363e a2b3 bf3d 19fc 313d
00000300: fb1a 413d 2ff2 903d 0621 2c3d 595b 0fbc
00000310: 3c0f 66bc 9190 48bd 0877 b13d 5f65 153d
00000320: 6212 373d 5aa1 00be bd27 03be ce74 bebd
00000330: c95b 15be 4677 04bd 7049 a13d 1a71 5d3d
00000340: 059c af3c 8b86 9cbd 5328 9a3c 4766 8f3d
00000350: a37b 56bd 8376 923b dccf fc3c eab3 f83d
00000360: 81ec 90bd ab15 82bd 4e0a 133d 1375 113d
00000370: 86a0 c13c 9c16 953a 07d4 d4bd b7bd b1bd
00000380: a77a 7fbc 32d6 9f3d 0620 81bc c8ab 09bd
00000390: 9484 103d e502 43bd a0da e3bc d5e4 ef3c
000003a0: 7350 77bd 8c9c e53d edf5 39bd 22d4 ce3c
000003b0: 0721 e73d 2b2b d5bd 7529 573a 2f59 233d
000003c0: 2d63 c9bd 3781 3fbe 692f 86be 1968 37bb
000003d0: b743 25bd 312e f7bc b554 94bd 30ee b8bd
000003e0: 4689 efbc ba16 49be 054d f2bd 3872 d2bd
000003f0: d81c 46be 9430 b1bd 90e1 8cbd 9c60 b2be

cnn_model_2.conv1.bias f4 [32]
-0.0024936784 0.022057869 0.040961467 0.040029984 0.038678933 0.02724719 -0.016937679 -0.026421666
0.02430555 -0.003194318 -0.04048249 -0.018251512 -0.015797077 0.03209182 -0.026587788 -0.027802175
0.040035505 0.0064466437 0.03900284 0.009714012 -0.0029113446 0.0017637785 0.006394007 -0.02483919
0.015558221 0.011024292 0.019192655 -0.0055843787 -0.0337429 -0.022147112 0.015216187 -0.034600075
00000000: fb6c 23bb b4b2 b43c 36c7 273d 7bf6 233d
00000010: cd6d 1e3d 8035 df3c e3c0 8abc 4072 d8bc
00000020: 6f1c c73c c357 51bb f8d0 25bd 3284 95bc
00000030: df68 81bc b672 033d a2ce d9bc 63c1 e3bc
00000040: 45fc 233d 5e3e d33b 71c1 1f3d 8527 1f3c
00000050: 42cc 3ebb 962e e73a d184 d13b 8f7b cbbc
00000060: e9e7 7e3c 3b9f 343c ea39 9d3c 2afd b6bb
00000070: ff35 0abd dc6d b5bc 504d 793c cfb8 0dbd

cnn_model_2.bn1.weight f4 [32]
0.8584899 0.9000767 0.986573 0.94811577 1.0168812 1.0280322 1.0221885 0.9996525
1.0163457 1.0757495 0.845151 1.1129704 1.0078511 0.9199864 1.0134864 1.1836729
1.0241376 0.9329047 0.93010885 1.0009335 1.167421 0.86543137 1.04505 1.0047919
0.8088898 1.0283972 1.0934318 0.94132626 1.0588653 0.99675703 0.939239 0.94908893
00000000: fec5 5b3f 6d6b 663f 0c90 7c3f b7b7 723f
00000010: 2a29 823f 8f96 833f 13d7 823f 3ae9 7f3f
00000020: 9e17 823f 29b2 893f d15b 583f d075 8e3f
00000030: 4401 813f 3b84 6b3f ecb9 813f 9882 973f
00000040: f116 833f d8d2 6e3f 9d1b 6e3f 971e 803f
00000050: 0d6e 953f e98c 5d3f 33c4 853f 059d 803f
00000060: 6713 4f3f 85a2 833f 93f5 8b3f c2fa 703f
00000070: e688 873f 782b 7f3f f871 703f 7ef7 723f

cnn_model_2.bn1.bias f4 [32]
-0.04852443 -0.16077943 -0.09065909 -0.14614703 -0.12763372 -0.2498956 -0.07856574 0.026319392
0.072588965 0.009176771 -0.06376883 -0.0017252471 -0.032930974 -0.12788811 -0.14961702 0.17366621
-0.20606968 -0.22528869 -0.08315603 -0.022627672 -0.044176396 -0.19189648 -0.050963838 -0.14036109
-0.15075517 -0.03244459 0.033634126 -0.09760703 -0.13664377 -0.14592986 -0.084699824 -0.19809365
00000000: 8dc1 46bd 5da3 24be 79ab b9bd 91a7 15be
00000010: 6ab2 02be a2e4 7fbe 13e7 a0bd c49b d73c
00000020: 86a9 943d 2b5a 163c 3b99 82bd b021 e2ba
00000030: a1e2 06bd 1af5 02be 3435 19be 8ed5 313e
00000040: ee03 53be 14b2 66be b54d aabd ab5d b9bc
00000050: 4ff2 34bd 8380 44be 75bf 50bd d1ba 0fbe
00000060: 905f 1abe 9ee4 04bd f0c3 093d 32e6 c7bd
00000070: 58ec 0bbe a36e 15be 1a77 adbd 10d9 4abe

cnn_model_2.bn1.running_mean f4 [32]
-2.6366353 -5.8215423 0.7455017 -3.3513448 -5.3563523 -2.1595235 -2.0825078 -3.6090028
1.0073138 -0.96640265 0.9086189 0.64528656 -4.488979 -8.23984 -4.547648 -4.335589
-3.422775 0.9012835 -7.233974 -0.086095534 -3.5376523 2.2917733 -0.3122255 -5.418776
4.013168 -4.7806754 -7.5039907 -8.614439 -3.2861564 -6.1815333 1.360484 -5.382474
00000000: a2be 28c0 134a bac0 33d9 3e3f 6f7c 56c0
00000010: 3d67 abc0 a235 0ac0 cf47 05c0 e7f9 66c0
00000020: a9ef 803f 2a66 77bf 409b 683f 8031 253f
00000030: b7a5 8fc0 62d6 03c1 5586 91c0 25bd 8ac0
00000040: bf0e 5bc0 84ba 663f b77c e7c0 db52 b0bd
00000050: e568 62c0 6aac 1240 05dc 9fbe 9d66 adc0
00000060: df6b 8040 4bfb 98c0 b120 f0c0 bed4 09c1
00000070: 6350 52c0 1fcf c5c0 5724 ae3f 3a3d acc0

cnn_model_2.bn1.running_var f4 [32]
11.479506 37.32011 15.100951 34.922195 12.4601 33.72459 15.083746 17.82783
13.137802 26.06962 18.617477 15.016391 27.81549 56.5367 20.133604 14.413351
27.892515 15.723268 16.714289 13.012453 28.618378 14.957496 21.145082 14.628936
25.359781 34.521706 22.810452 48.844036 21.435356 43.299538 9.718487 17.964607
00000000: 0eac 3741 cb47 1542 7f9d 7141 54b0 0b42
00000010: 925c 4741 fbe5 0642 0657 7141 659f 8e41
00000020: 7034 5241 958e d041 98f0 9441 2343 7041
00000030: 2086 de41 9525 6242 9f11 a141 169d 6641
00000040: df23 df41 8192 7b41 ddb6 8541 0233 5041
00000050: 70f2 e441 e751 6f41 2129 a941 1f10 6a41
00000060: d5e0 ca41 3a16 0a42 ce7b b641 4b60 4342
00000070: 9c7b ab41 ba32 2d42 ec7e 1b41 84b7 8f41

cnn_model_2.conv2.weight f4 [16, 32, 3, 3]
-0.062405292 -0.22454551 -0.13531183 0.04374948 0.015560771 -0.012000493 -0.042989474 0.001308496
0.016477771 0.09761425 -0.014963492 0.11812437 -0.03357257 -0.07122477 0.048539605 0.095566005
0.003547902 0.023102617 -0.081614316 0.104349874 0.095766164 -0.071106486 0.0055510793 -0.079042874
-0.082442924 0.022524158 0.042112462 -0.033963 -0.07919474 -0.008777035 -0.053899232 -0.08535776
0.03915171 0.15352458 -0.08820182 0.041301172 -0.07215213 0.015498234 -0.25809598 0.042314462
0.15905362 0.24918444 -0.03218299 -0.024913467 -0.076516315 -0.13944776 0.015085638 -0.007864764
0.022293165 -0.03130187 -0.012077672 0.14127962 0.02625173 0.1321188 -0.082430765 -0.14901279
-0.1857752 0.020893466 0.22529209 0.12055105 0.08254964 0.062136807 0.017047143 0.029846417
0.062162403 -0.020021018 -0.008432759 0.026059587 -0.05599023 0.11046474 0.0866873 0.10048295
0.07203133 -0.045016117 0.02427849 0.09931027 -0.11848769 0.026032863 -0.20877095 -0.16251543
0.009371729 0.06814297 -0.09450583 -0.021339618 -0.063266076 -0.14516647 -0.2994152 0.1275094
0.15895756 0.0658127 0.08121568 -0.04074164 -0.080776066 0.044649646 -0.13240904 -0.16046324
0.040943224 0.12334215 -0.022585899 -0.04859552 -0.27440888 -0.16293249 -0.107747205 -0.121641494
-0.17731111 0.05814668 -0.05312282 -0.123989396 0.0026840814 -0.14501575 -0.08891741 -0.11221663
-0.016803281 0.040779896 0.06531506 -0.11340919 -0.010525087 0.09029323 0.05378267 0.005404366
-0.034021568 0.0025374568 0.066595756 -0.044976264 -0.15328328 -0.08624532 0.06439342 0.07631032
0.087749675 0.09063515 -0.054637797 0.031189984 -0.027678953 -0.04494588 -0.038256522 0.03516055
-0.047304276 -0.13873683 0.05841669 0.010061303 -0.06459314 -0.082570374 0.22253567 0.10750472
0.0080116885 -0.027547082 0.09037465 -0.01145099 -0.09096805 0.0798068 0.08493484 -0.12712245
-0.18595707 0.027198441 0.03259423 -0.0050134617 0.047936935 -0.08249695 -0.050879985 0.06906242
0.092099644 0.1234046 -0.14100586 -0.18825066 -0.037286714 0.09247989 0.16324033 -0.032639656
-0.039205898 0.07255904 0.2834953 0.041622728 0.08412627 0.08587446 0.063344106 -0.008851818
0.043014467 -0.14695919 -0.003739008 0.117600664 0.19265017 0.121463485 0.11026495 -0.10078687
-0.13977465 -0.21941234 -0.12480617 0.13848512 -0.21898128 -0.11751523 0.04959713 -0.13181034
-0.24091816 -0.21936144 -0.24809016 0.09540285 -0.032787483 0.05071763 -0.043935865 -0.19418967
-0.13729823 0.0100865085 0.109859414 -0.09571615 0.053024657 0.115391955 0.19805498 0.05269162
0.035185266 0.02913335 0.07810752 0.11863851 0.09527425 -0.07803555 -0.048902664 -0.008656764
0.10433438 0.09066686 -0.09380483 -0.16555363 -0.07178754 -0.10048661 0.047274053 -0.015225805
0.023847925 -0.19660759 -0.15821587 0.06910239 -0.027993523 0.03774271 0.051570605 0.074627765
-0.03096844 0.08132504 -0.037538696 -0.23155874 -0.069401674 0.088125534 -0.031306017 -0.09035678
-0.14169738 -0.08493321 0.053745043 -0.0049970276 -0.07003122 0.016215581 -0.012905202 -0.04465451
-0.083316065 0.07551201 0.13339761 0.06742663 0.12171963 -0.1377098 0.1676624 0.07495958
00000000: b19c 7fbd 42ef 65be 2f8f 0abe a832 333d
00000010: 9bf2 7e3c b79d 44bc bb15 30bd d781 ab3a
00000020: 64fc 863c fbe9 c73d 6f29 75bc 31eb f13d
00000030: 6483 09bd 4bde 91bd 77d1 463d 1cb8 c33d
00000040: eb83 683b b341 bd3c 6825 a7bd 63b5 d53d
00000050: 0d21 c43d 47a0 91bd d4e5 b53b 3be1 a1bd
00000060: d6d7 a8bd 9584 b83c 1e7e 2c3d c91c 0bbd
00000070: da30 a2bd 8ecd 0fbc 71c5 5cbd 0dd0 aebd
00000080: 8b5d 203d 8c35 1d3e 28a3 b4bd 6b2b 293d
00000090: 7fc4 93bd 4eec 7d3c 2825 84be ee51 2d3d
000000a0: f4de 223e 352a 7f3e 50d2 03bd 5417 ccbc
000000b0: 96b4 9cbd 65cb 0ebe c029 773c 36db 00bc
000000c0: 28a0 b63c 6436 00bd 6ee1 45bc 9bab 103e
000000d0: de0d d73c 274a 073e 76d1 a8bd cf96 18be
000000e0: db3b 3ebe c628 ab3c f8b2 663e 78e3 f63d
000000f0: c90f a93d 2a83 7e3d 73a6 8b3c 7980 f43c
00000100: 019e 7e3d 1e03 a4bc 8e29 0abc ea7a d53c
00000110: 0356 65bd 563b e23d 1c89 b13d 01ca cd3d
00000120: 2985 933d d262 38bd afe3 c63c 2f63 cb3d
00000130: ada9 f2bd df42 d53c 0dc8 55be 726a 26be
00000140: e18b 193c 8b8e 8b3d 468c c1bd 6cd0 aebc
00000150: a591 81bd 85a6 14be f34c 99be d391 023e
00000160: c5c5 223e cfc8 863d 6854 a63d b5e0 26bd
00000170: ec6d a5bd 8ce2 363d 3c96 07be 7a50 24be
00000180: 15b4 273d cf9a fc3d 1006 b9bc 190c 47bd
00000190: 527f 8cbe c6d7 26be 91aa dcbd 2d1f f9bd
000001a0: 0b91 35be 372b 6e3d 5097 59bd 27ee fdbd
000001b0: 6ae7 2f3b 027f 14be 551a b6bd d5d1 e5bd
000001c0: 09a7 89bc d208 273d e7c3 853d 1443 e8bd
000001d0: 6a71 2cbc a8eb b83d 384b 5c3d 1c17 b13b
000001e0: 335a 0bbd 764b 263b 5b63 883d 0839 38bd
000001f0: 4bf6 1cbe 63a1 b0bd b3e0 833d 9648 9c3d
00000200: 1ab6 b33d ec9e b93d e2cb 5fbd 2382 ff3c
00000210: f9be e2bc 2c19 38bd dfb2 1cbd 8204 103d
00000220: 21c2 41bd 0711 0ebe 5746 6f3d 2ad8 243c
00000230: 6849 84bd a81a a9bd 64e0 633e 6f2b dc3d
00000240: 7543 033c 6baa e1bc 5816 b93d ef9c 3bbc
00000250: 754d babd bf71 a33d 51f2 ad3d 632c 02be
00000260: 886b 3ebe 44cf de3c 8781 053d f747 a4bb
00000270: 8559 443d 29f4 a8bd 8867 50bd 9970 8d3d
00000280: bd9e bc3d 8dbb fc3d d763 10be c8c4 40be
00000290: f4b9 18bd 1966 bd3d 7928 273e 29b1 05bd
000002a0: 5d96 20bd d599 943d 4c26 913e 987c 2a3d
000002b0: 654a ac3d f3de af3d 8eba 813d 3707 11bc
000002c0: f02f 303d 787c 16be 250a 75bb 9ed8 f03d
000002d0: 1646 453e d9c1 f83d 97d2 e13d 5969 cebd
000002e0: 1621 0fbe a1ad 60be 619a ffbd 0bcf 0d3e
000002f0: a13c 60be d3ab f0bd 5c26 4b3d 4af9 06be
00000300: 40b3 76be 49a0 60be 590b 7ebe 9262 c33d
00000310: 2b4c 06bd 4abd 4f3d 18f6 33bd a8d9 46be
00000320: e897 0cbe e241 253c f9fd e03d d406 c4bd
00000330: 6230 593d 9e52 ec3d edce 4a3e 2bd3 573d
00000340: 6d1e 103d 10a9 ee3c d6f6 9f3d bff8 f23d
00000350: 251f c33d 1ad1 9fbd 294e 48bd 1ad5 0dbc
00000360: 43ad d53d 8caf b93d bf1c c0bd e486 29be
00000370: 5905 93bd eccb cdbd 70a2 413d a875 79bc
00000380: b95c c33c 8053 49be 5703 22be 8e85 8d3d
00000390: ac52 e5bc 1a98 1a3d b33b 533d 71d6 983d
000003a0: 87b1 fdbc be8d a63d 2dc2 19bd bc1d 6dbe
000003b0: 7722 8ebd 297b b43d bd3a 00bd fa0c b9bd
000003c0: 1e19 11be 76f1 adbd c323 5c3d 1bbe a3bb
000003d0: 876c 8fbd 8ad6 843c 5770 53bc a6e7 36bd
000003e0: 9da1 aabd 0aa6 9a3d 6299 083e f916 8a3d
000003f0: 2448 f93d cc03 0dbe b1af 2b3e 6984 993d

cnn_model_2.conv2.bias f4 [16]
0.04411954 -0.049509596 0.016837379 0.032146167 -0.06731095 0.04502712 -0.025379134 -0.0409663
-0.020811858 0.0059579574 0.03210477 0.04158629 0.02107464 -0.10566071 0.0465415 0.027005592
00000000: b1b6 343d 93ca 4abd 8bee 893c b3ab 033d
00000010: 53da 89bd 5b6e 383d e7e7 cfbc 47cc 27bd
00000020: a17d aabc f83a c33b 4b80 033d 6356 2a3d
00000030: b9a4 ac3c a464 d8bd 4da2 3e3d d53a dd3c

cnn_model_2.bn2.weight f4 [16]
0.98555714 0.881485 1.0537382 1.0517048 0.887511 1.0746841 0.8994471 1.085654
0.92235124 0.8480758 0.9117519 0.9801115 1.0799963 1.1925812 0.94065875 0.9895779
00000000: 794d 7c3f 00a9 613f e5e0 863f 439e 863f
00000010: ec33 633f 408f 893f 2a42 663f b6f6 8a3f
00000020: 361f 6c3f 7f1b 593f 9368 693f 96e8 7a3f
00000030: 523d 8a3f 80a6 983f 03cf 703f fa54 7d3f
