Yaseen/model/Yaseen_model.pth (torch, 833810 bytes, 50 tensors)

cnn_model_1.conv1.0.weight f4 [16, 1, 3, 3]
0	0x3cc40ace	0.023930933
1	0xbd06b60b	-0.032888453
2	0x3e1632dd	0.1466784
3	0x3e188203	0.14893346
4	0x3e01d962	0.12680581
5	0xbe3a21ed	-0.18177004
6	0xbebfb902	-0.37445837
7	0xbeb19448	-0.34683442
8	0x3e718591	0.23586108
9	0xbe00faac	-0.12595624
10	0xbcdb4e3f	-0.02677071
11	0x3ddbf30c	0.10739717
12	0x3def1260	0.11673427
13	0xbeb25417	-0.3482978
14	0x3e068ee3	0.13140444
15	0xbe7369fa	-0.23770896
16	0xbea07ebc	-0.3134669
17	0xbe8ad6a6	-0.2711689
18	0xbe4bf881	-0.19919015
19	0x3bf212a1	0.0073874746
20	0x3eb06b46	0.34456843
21	0xbeb34dcd	-0.35020295
22	0xbe986cf3	-0.29770622
23	0x3ea5037a	0.32229215
24	0xbe9ae4be	-0.3025264
25	0xbdbb9d57	-0.091608696
26	0xbd40c87c	-0.047066197
27	0x3e2cd0f2	0.16876581
28	0x3e13ea93	0.14444952
29	0xbcffd887	-0.031231178
30	0xbe728b17	-0.23685871
31	0xbe2f1422	-0.17097524
32	0xbd044a3e	-0.032297365
33	0x3e25aca5	0.1617914
34	0x3d9f1313	0.0776731
35	0xbe56697a	-0.20938674
36	0xbe0a182b	-0.13485782
37	0x3e14d75e	0.14535281
38	0xbe8ca4f4	-0.274696
39	0xbdae87d0	-0.08521998
40	0xbdfd3856	-0.12364261
41	0xbe1869de	-0.14884135
42	0x3da06060	0.07830882
43	0xbd513deb	-0.05108444
44	0xbe4d51de	-0.20050761
45	0xbe13b4a7	-0.14424382
46	0x3e832f1a	0.25621873
47	0xbe4826d2	-0.19546059
48	0x3e895c86	0.26828402
49	0xbe2e36c5	-0.1701308
50	0xbe0e159b	-0.1387543
51	0xbe96e42a	-0.2947095
52	0x3e3b4a8d	0.18290158
53	0xbe82110f	-0.2540364
54	0xbe1c1a38	-0.15244377
55	0xbb945356	-0.004526536
56	0x3cb5f5c0	0.02221191
57	0xbdc42886	-0.09578042
58	0xbe748586	-0.2387906
59	0xbe60c108	-0.21948636
60	0xbdb0c890	-0.08632004
61	0xbe492a63	-0.19645076
62	0x3e0565be	0.13027093
63	0xbeb42669	-0.35185555
64	0x3da0ea71	0.07857216
65	0xbe217cca	-0.1577026
66	0xbe57f0b9	-0.21087922
67	0x3e13691a	0.14395562
68	0x3d8e3209	0.06943137
69	0xbdef0d57	-0.11672466
70	0x3d40192c	0.046899006
71	0xbdd47f5a	-0.10375853
72	0xbcbe60eb	-0.023239573
73	0x3e82f5e9	0.2557824
74	0x3e5c5568	0.21516955
75	0xbe9026d7	-0.28154632
76	0xbd8c1cef	-0.06841456
77	0x3e48084d	0.19534416
78	0xbde4771b	-0.1115553
79	0xbec2f26e	-0.38075584
80	0x3d0d1780	0.03444624
81	0xbdf5ac6b	-0.11995777
82	0xbbb9e333	-0.005672836
83	0x3dbdd155	0.092684425
84	0x3d0a903d	0.033828963
85	0xbd25bef6	-0.040465318
86	0xbde0b10d	-0.1097127
87	0x3dc8a948	0.09797913
88	0x3cee5c43	0.029096728
89	0xbd901824	-0.070358545
90	0x3e4ff216	0.20307192
91	0x3e018e65	0.12651975
92	0xbea663cf	-0.32498023
93	0xbe5e0077	-0.21679865
94	0x3e91674d	0.28399125
95	0x3e88c9e1	0.2671652
96	0x3e016d1a	0.12639275
97	0xbe9d13a1	-0.30679038
98	0xbe064140	-0.13110828
99	0x3ca8e551	0.02061716
100	0xbd864c54	-0.06557527
101	0xbd4aaf7a	-0.049483754
102	0xbeb1dbd4	-0.34738028
103	0xbe8930d9	-0.2679508
104	0x3eae6b92	0.34066445
105	0xbeaad016	-0.33361882
106	0x3d23af80	0.03996229
107	0x3e1f7ff3	0.15576153
108	0xbe6d7bb7	-0.23191725
109	0x3c6c1e00	0.014411449
110	0x3e990092	0.29883248
111	0xbea39c5e	-0.31955236
112	0x3d8a4101	0.0675068
113	0xbe6979a8	-0.22800314
114	0xbde42a35	-0.11140863
115	0xbe2a6451	-0.1663983
116	0x3e40a89d	0.18814321
117	0x3e06d3a5	0.13166673
118	0xbde25151	-0.11050666
119	0xbe0f6f34	-0.14007264
120	0x3e64e8e9	0.22354473
121	0xbe2c029a	-0.16797867
122	0xbe9412ca	-0.28920585
123	0x3d2a46ce	0.04157143
124	0xbdb3fcbf	-0.08788442
125	0xbe9d3a97	-0.30708763
126	0x3e96f070	0.29480314
127	0x3daa9918	0.083299816
128	0xbd3e23a3	-0.046420705
129	0x3e20fac7	0.15720664
130	0xbe2c4ce2	-0.16826203
131	0xbecb2570	-0.39677
132	0xbcd2efd0	-0.025749117
133	0xbdb2315c	-0.08700821
134	0xbea8b2c4	-0.32948887
135	0xbddf2206	-0.10895161
136	0xbe154720	-0.14577913
137	0xbd6aed6b	-0.057355326
138	0xbe38fc00	-0.1806488
139	0x3e4cc219	0.19995917
140	0xbe32bb44	-0.17454249
141	0xbe5d6b38	-0.21622932
142	0xbe1ed821	-0.15512134
143	0x3d9622a4	0.07330826

cnn_model_1.conv1.0.bias f4 [16]
0	0xbe811aac	-0.25215662
1	0x3c7cd924	0.01543263
2	0xbea3192c	-0.31855142
3	0xbf237a68	-0.6385865
4	0xbe9acd83	-0.30234918
5	0x3dddf84a	0.10838373
6	0xbe81e2ac	-0.2536825
7	0xbeb0120f	-0.34388778
8	0xbf1145c5	-0.56747085
9	0xbebf115f	-0.3731794
10	0xbe5d4ed8	-0.21612108
11	0x3d93bf11	0.072141774
12	0x3e8549f7	0.26032993
13	0x3c579e70	0.013160333
14	0xbac138b6	-0.0014741633
15	0xbd707e8a	-0.058714427

cnn_model_1.conv2.0.weight f4 [32, 16, 3, 3]
0	0xbdae14bf	-0.08500051
1	0xba14a6cc	-0.00056706066
2	0x3d9acc9c	0.075585574
3	0x3d228233	0.03967495
4	0xbdb91d00	-0.090387344
5	0x38b002a0	8.392823e-05
6	0x3d5e97d0	0.054344
7	0x3bf3f9bb	0.0074455417
8	0xbd8e1578	-0.069376886
9	0xbcf8c078	-0.030365214
10	0x3d0d6c5a	0.03452716
11	0xb9c56230	-0.00037647923
12	0xbcb0a949	-0.021565096
13	0xbd3b5f31	-0.04574508
14	0xbd4496f4	-0.047995523
15	0xbdb060b7	-0.08612197
16	0xbb05e3b7	-0.0020429918
17	0x3d65a4cc	0.056065366
18	0xbdd4acbc	-0.10384509
19	0xbd6defce	-0.058090024
20	0x3e20bea8	0.1569773
21	0xbdbf2127	-0.09332495
22	0xbdf0c973	-0.117571734
23	0x3c3d7cff	0.011565446
24	0xbe2aabaa	-0.16667047
25	0xbdf96ae3	-0.1217859
26	0xbd2ba7b1	-0.04190797
27	0xbdc9c93c	-0.098528355
28	0x3d7a2836	0.061073504
29	0x3cf9d451	0.030496748
30	0x3c9dfad8	0.01928465
31	0x3ce3be49	0.027800696
32	0xbd440c33	-0.047863197
33	0x3d92858e	0.0715438
34	0x3c8e80e0	0.017395437
35	0xbd7b340d	-0.061328936
36	0x3da20cda	0.079126075
37	0x3d320780	0.043464184
38	0x3b958400	0.0045628548
39	0xbd99b1b0	-0.07504594
40	0x3d6f808b	0.058472198
41	0x3d8e3b3f	0.06944894
42	0xbd090cde	-0.033459537
43	0xbd5f246e	-0.0544781
44	0xbd9748ab	-0.07386907
45	0xbc88c5ef	-0.016695945
46	0xbc32dd13	-0.010916966
47	0xbcbfe12c	-0.0234228
48	0x3d3f83e4	0.04675664
49	0xbe051726	-0.12997112
50	0x392e2fa9	0.00016611688
51	0x3dc18de2	0.0945089
52	0xbccbef29	-0.024894314
53	0xbd4ba244	-0.049715295
54	0xbd9fcd70	-0.07802856
55	0x3d3518a6	0.04421296
56	0x3d6b7ca8	0.05749193
57	0x3c06d8e0	0.008230418
58	0x3bf25916	0.007395874
59	0xbd2b1d36	-0.041775905
60	0x3d7b901b	0.061416727
61	0x3c9e5cd0	0.019331366
62	0x3d96ea76	0.073689386
63	0x3af9f180	0.0019069165
64	0xbe19aeaf	-0.15008043
65	0xbcdebdd3	-0.027190125
66	0xbc95ff87	-0.018310321
67	0xbd8233e8	-0.063575566
68	0xbdc8b504	-0.09800151
69	0xbde81df8	-0.11333841
70	0xbd38c6d2	-0.045111485
71	0xbc7b60e1	-0.015342922
72	0x3d2a8263	0.041628253
73	0xbe408228	-0.1879965
74	0x3d3f79e0	0.04674709
75	0xbd72c39d	-0.059268583
76	0xbe0f8fa7	-0.14019643
77	0xbc3031be	-0.010754047
78	0xbde5a5c2	-0.112132564
79	0xbcfac7d8	-0.030612871
80	0xbd917190	-0.071017385
81	0x3da6648d	0.08124647
82	0x3c8aa0bd	0.01692235
83	0xbdaa31a9	-0.08310253
84	0x3d5fc51b	0.054631334
85	0x3d316d22	0.043316968
86	0x3d067ffc	0.0328369
87	0x3b9aaa29	0.0047199917
88	0x3c3c2c88	0.011485226
89	0xbd247b34	-0.04015656
90	0xbc34c2f1	-0.011032806
91	0x3cf1915f	0.029488264
92	0xbce89e5e	-0.028395828
93	0xbcdee5df	-0.02720922
94	0x3db2234e	0.0869814
95	0xbd65d908	-0.05611518
96	0x3dbb97cc	0.09159812
97	0x3d14893a	0.036263682
98	0xbdc77854	-0.09739748
99	0xbe068b52	-0.13139084
100	0xbda017b2	-0.078170195
101	0xbc091ecc	-0.008369159
102	0xbe7fe377	-0.24989115
103	0xbcd8b214	-0.026452102
104	0x3d740706	0.05957701
105	0xbe348fe4	-0.17633015
106	0xbce428be	-0.027851459
107	0xbc4e7a46	-0.012602394
108	0x3d2681a4	0.04065098
109	0xbd1bc05c	-0.038025245
110	0x3d42cba9	0.047557507
111	0xbd4d1eec	-0.050078318
112	0xbe60f6a6	-0.21969089
113	0xbd30df22	-0.043181546
114	0x3cd8fd4a	0.026487965
115	0xbdb842d2	-0.0899712
116	0xbbde4ccf	-0.0067840586
117	0xbd6cfdb4	-0.057859138
118	0x3dafdcc5	0.0858703
119	0xbd803ac9	-0.062612124
120	0xbd507876	-0.05089613
121	0x3c942ca7	0.018087698
122	0xbe34ef1c	-0.17669338
123	0xbe1fbed5	-0.1560014
124	0xbda2e327	-0.07953482
125	0xbde77982	-0.11302473
126	0x3db196cd	0.08671341
127	0x3de4c4f0	0.11170375
128	0xbe01fffa	-0.12695304
129	0x3df24fee	0.11831652
130	0xbc2171d2	-0.009853797
131	0xbdc0dcce	-0.09417115
132	0x3cdde809	0.027088182
133	0x3c8c1ffe	0.017105099
134	0xbe1daf8d	-0.15398999
135	0x3d76dbf8	0.060268372
136	0x3da096b3	0.078412436
137	0xbc71000b	-0.014709483
138	0x3cc681bd	0.024231786
139	0x3d68f559	0.056874607
140	0x3d039f10	0.032134116
141	0xbd8c2884	-0.06843665
142	0x3c3cfe36	0.011535218
143	0xbd6678e8	-0.05626765
144	0x3cf65e1b	0.03007417
145	0xbd8218eb	-0.06352409
146	0x3df2fcfb	0.118646584
147	0xbd31aaa7	-0.043375637
148	0xbe1638e3	-0.14670138
149	0x3d6f2619	0.058385942
150	0x3daeb53d	0.08530662
151	0xbd8c7b28	-0.06859428
152	0x3cb0a4ba	0.021562923
153	0xbaed10c3	-0.001808666
154	0x3c2eafb3	0.010662007
155	0x3d023d62	0.03179682
156	0x3d691557	0.056905117
157	0xbd3d8a7a	-0.04627464
158	0xbcd524b6	-0.026018482
159	0xbd7fac82	-0.062420376
160	0xbd31d107	-0.043412235
161	0xbcbae29d	-0.022813136
162	0xbe05a2bb	-0.13050358
163	0xbe1895fe	-0.14900967
164	0xbe5cfb7b	-0.21580307
165	0xbdd2e7e3	-0.10298135
166	0xbdcb96c6	-0.09940867
167	0xbe913bfa	-0.2836607
168	0xbe106083	-0.14099316
169	0xbded720e	-0.1159402
170	0xbe676fee	-0.22601292
171	0x3cbef07f	0.023308037
172	0x3c2ae81f	0.010431319
173	0xbc0e5611	-0.008687512
174	0xbdd68c86	-0.104760215
175	0xbc061663	-0.008184048
176	0xbddab437	-0.106789045
177	0xbd8bcfd0	-0.068267465
178	0xbc0c4959	-0.008562409
179	0xbd94ad73	-0.07259645
180	0x3d805bd6	0.06267516
181	0x3d67c37e	0.05658292
182	0xbc13690b	-0.008997212
183	0x3d478fae	0.048721008
184	0x3cdeb75b	0.02718704
185	0x3d472146	0.048615716
186	0x3d7b75a8	0.061391503
187	0x3d28ab0e	0.041178755
188	0xbda3cee8	-0.079984486
189	0xbe09d7d5	-0.1346124
190	0xbd65d107	-0.056107547
191	0x3d36fde7	0.044675734
192	0xbd7105e4	-0.05884351
193	0x3c8e7d73	0.017393803
194	0xbd212cc4	-0.039349332
195	0xbde2f2a6	-0.11081438
196	0x3ad763a6	0.0016432896
197	0x3d53de47	0.051725652
198	0x3d9af40f	0.07566082
199	0x3cad0686	0.021121275
200	0x3b9fb596	0.0048739417
201	0x3d320953	0.043465924
202	0x3d46e603	0.0485592
203	0xbd6b0bc3	-0.057384264
204	0xb90d0d56	-0.00013451776
205	0x3d9471a7	0.0724824
206	0x3d654db3	0.055982303
207	0x3d3712d2	0.044695683
208	0x3cb36688	0.021899477
209	0xbc71d9b6	-0.014761379
210	0x3d6be939	0.057595465
211	0x3dd981d7	0.10620468
212	0xbd7f42b1	-0.06231946
213	0xbd37e7ac	-0.044898674
214	0xbbaa2ba3	-0.00519319
215	0x3c8c258c	0.017107747
216	0x3d3d15bc	0.046163306
217	0xbb4434e2	-0.0029938747
218	0xbd050a4b	-0.03248052
219	0xbb14a424	-0.0022680843
220	0xbdbbfa32	-0.0917858
221	0x3d9380a9	0.07202274
222	0xbd00d5d7	-0.031453934
223	0x3bb6fe61	0.0055845235
224	0x3d0b64b5	0.03403159
225	0xbd698479	-0.0570111
226	0x3c9967e2	0.018726293
227	0x3c33457b	0.010941858
228	0xbd04cc58	-0.03242144
229	0x3ccff1f7	0.025383933
230	0xbdcf91f0	-0.10135257
231	0x3c1db456	0.009625515
232	0x3ccc9326	0.02497251
233	0x3c768b84	0.015047912
234	0x3baa7198	0.0052015297
235	0x3d479278	0.048723668
236	0xbbf104f4	-0.007355327
237	0xbd815ff9	-0.063171335
238	0x3d313db0	0.04327172
239	0xbd562273	-0.052278947
240	0xbdde9654	-0.108685166
241	0xbc093f9d	-0.008376983
242	0x3d2742fc	0.040835366
243	0xbe6119e1	-0.21982528
244	0xbe1a751a	-0.15083733
245	0xbeae7c73	-0.34079322
246	0xbe3f2530	-0.1866653
247	0xbdf2df68	-0.118590176
248	0xbea6c71c	-0.32573783
249	0xbe250ff4	-0.16119367
250	0xbd00967a	-0.031393506
251	0xbeb009e2	-0.3438254
252	0xbd991ad0	-0.07475817
253	0x3d79279b	0.060828786
254	0xbd741111	-0.05958659
255	0x3c144153	0.009048778

cnn_model_1.conv2.0.bias f4 [32]
0	0x3d7f3436	0.06230565
1	0xbcf7be66	-0.030242156
2	0x3d5ec470	0.054386556
3	0xbc06b9bf	-0.008222996
4	0xbd16b07d	-0.036789406
5	0x3c2d312f	0.010570808
6	0xbcaf480f	-0.021396665
7	0xbbaed4bf	-0.00533542
8	0xbd69693b	-0.05698512
9	0xbcf1826d	-0.029481137
10	0x3dac347e	0.084084496
11	0x3d8b8844	0.068131
12	0x3d4bcf7b	0.049758416
13	0xbd0a2af4	-0.03373237
14	0x3d59c0f7	0.05316254
15	0xbb2659c8	-0.0025383104
16	0x3da0ee4e	0.07857953
17	0x3cf29327	0.029611183
18	0xb7acd04b	-2.0600992e-05
19	0x3d50a7fc	0.050941452
20	0xbc11ff93	-0.008911031
21	0x3d2d1e1c	0.042265043
22	0x3cef517a	0.029213656
23	0xbcd6b929	-0.026211338
24	0xbc781680	-0.015142083
25	0x3c180159	0.009277665
26	0x3c0cd6aa	0.008596102
27	0x3d15e2f7	0.036593404
28	0xbd3a422f	-0.045473274
29	0x3da17ae5	0.078847684
30	0xbd1625a9	-0.03665701
31	0xbdaad369	-0.083411045

cnn_model_1.conv2.1.weight f4 [32]
0	0x3f5178f4	0.81825185
1	0x3f772b9e	0.9655093
2	0x3f819524	1.0123639
3	0x3f7342eb	0.95023984
4	0x3f7d1457	0.9885916
5	0x3f5f0a23	0.8712484
6	0x3f635a06	0.8880924
7	0x3f5af04c	0.85522914
8	0x3f3acec9	0.7297178
9	0x3f695e68	0.9115968
10	0x3f635403	0.88800067
11	0x3f4aa91e	0.791643
12	0x3f54868b	0.83017796
13	0x3f618826	0.8809837
14	0x3f7faa1d	0.9986895
15	0x3f5ab90e	0.8543862
16	0x3f5ab364	0.8542998
17	0x3f6cecf3	0.92549056
18	0x3f520066	0.8203186
19	0x3f592018	0.84814596
20	0x3f5d3a9c	0.86417556
21	0x3f64423b	0.8916356
22	0x3f740578	0.95320845
23	0x3f5ecdcb	0.87032765
24	0x3f41d007	0.7570805
25	0x3f6f4e62	0.9347898
26	0x3f6b0ce7	0.9181656
27	0x3f66532a	0.8997065
28	0x3f8377d3	1.0270942
29	0x3f7c0a4d	0.9845322
30	0x3f620c43	0.8829996
31	0x3f835c3c	1.0262523

cnn_model_1.conv2.1.bias f4 [32]
0	0xbe934b66	-0.28768462
1	0x3d87bb52	0.066275254
2	0xbe63e6e3	-0.22256045
3	0xbe73f3ee	-0.2382352
4	0xbe3e7080	-0.18597603
5	0xbe76ad90	-0.24089646
6	0xbe3af694	-0.18258125
7	0xbe681fc0	-0.22668362
8	0xbec73676	-0.38908738
9	0x3d74b841	0.05974603
10	0xbc738da1	-0.01486531
11	0xbea160f1	-0.31519273
12	0xbe89a556	-0.26883954
13	0xbe8804e9	-0.26566246
14	0xbe48fa9a	-0.19626847
15	0xbe59accd	-0.21257325
16	0xbe221b7c	-0.15830797
17	0x3d66fc1e	0.05639278
18	0xbe51ff97	-0.20507656
19	0xbd8a6aa7	-0.067586236
20	0xbdc60208	-0.09668356
21	0xbe6cf156	-0.23138937
22	0x3d9599e3	0.07304742
23	0xbe6da833	-0.23208694
24	0xbe8a348c	-0.26993215
25	0xbd3485b8	-0.044072837
26	0xbe905a9e	-0.28194135
27	0xbea1c5dd	-0.3159627
28	0x3d0930f6	0.03349396
29	0xbe658e6c	-0.22417611
30	0xbe591b0e	-0.21201727
31	0xbe36a435	-0.17836078

cnn_model_1.conv2.1.running_mean f4 [32]
0	0xc012facb	-2.2965572
1	0xc05465fc	-3.3187246
2	0x3fe8b1ef	1.8179301
3	0x3f981987	1.188279
4	0x40963079	4.693417
5	0xc05d756d	-3.460292
6	0x40552528	3.3303928
7	0xbfbf3c0d	-1.4940201
8	0x3d6ab1f5	0.05729862
9	0xc0849055	-4.1426187
10	0xc0c7d324	-6.244524
11	0x4060e763	3.5141227
12	0x4013342c	2.3000593
13	0x3fa04abe	1.252281
14	0x40740477	3.8127725
15	0xc05a7318	-3.4132748
16	0x4018b5d7	2.3860986
17	0xc0b1a89a	-5.5518312
18	0xbf189b0d	-0.5961159
19	0xc0895c0f	-4.2924876
20	0xc0a8ff46	-5.2811613
21	0x409a5920	4.8233795
22	0xc01382af	-2.3048513
23	0xbff2cc56	-1.8968608
24	0xc03b2410	-2.924076
25	0xc0e76fdf	-7.232406
26	0x3fff0b7a	1.9925377
27	0x3fb0a744	1.3801045
28	0xbebb6b98	-0.36605525
29	0xbffe7641	-1.9879838
30	0x3f6cccac	0.92499804
31	0x3f9c9d6e	1.2235544

cnn_model_1.conv2.1.running_var f4 [32]
0	0x428c30a5	70.09501
1	0x4296ffee	75.49986
2	0x424f6343	51.846935
3	0x4223f249	40.986607
4	0x429a7253	77.22329
5	0x41e3bf0a	28.46828
6	0x4284f7d7	66.48406
7	0x42065f75	33.59322
8	0x419553d7	18.665937
9	0x42a1f352	80.975235
10	0x42a9117a	84.534134
11	0x4211f2ad	36.486988
12	0x41fd1745	31.636362
13	0x41db0018	27.375046
14	0x428a3840	69.10986
15	0x41d1cfc4	26.226448
16	0x4211521f	36.330196
17	0x42c01621	96.04322
18	0x41aed6cb	21.85488
19	0x42aedc1d	87.42991
20	0x421161fd	36.34569
21	0x41c1e549	24.236956
22	0x428e9f97	71.3117
23	0x41ed328b	29.64968
24	0x4266da03	57.712902
25	0x4269a263	58.40858
26	0x420ffd54	35.99739
27	0x41f9d66c	31.229698
28	0x429519b8	74.55023
29	0x4179aa9e	15.604155
30	0x42268cbe	41.637444
31	0x421fc6e2	39.94422

cnn_model_1.conv3.0.weight f4 [64, 32, 3, 3]
0	0xbdb92e82	-0.09042074
1	0x3c31651b	0.010827328
2	0xbb9624fd	-0.004582046
3	0x3b4bf779	0.0031122847
4	0xbda8c751	-0.082411416
5	0xbca20456	-0.019777458
6	0xbd6b2895	-0.05741175
7	0xbdd1b092	-0.10238756
8	0xbbcdeb07	-0.006284121
9	0xbd8b8da6	-0.06814127
10	0xbdb05005	-0.086090125
11	0x3a40b8b3	0.0007351741
12	0xbd89f215	-0.067356266
13	0x3c1f493e	0.009722052
14	0xbd17f9c1	-0.03710342
15	0xbc824d34	-0.015905954
16	0x3cf55c3d	0.02995121
17	0x3cd76b5b	0.026296308
18	0xbc8c409a	-0.017120648
19	0x397e74af	0.00024266796
20	0x3de55d70	0.111994624
21	0x3d60f717	0.054923143
22	0x3d6095e8	0.05483046
23	0x3d4ebae4	0.0504712
24	0x3d6642bd	0.05621599
25	0xbc4d072a	-0.012513915
26	0x3cb89e65	0.022536466
27	0x3de5c9de	0.11220144
28	0x3d4488e7	0.047982123
29	0x3de5cf2c	0.112211555
30	0x3df1ead5	0.11812369
31	0xbc96d137	-0.018410308
32	0x3e09a6b6	0.13442501
33	0x3cfadfd1	0.030624302
34	0xbdbc9fd0	-0.09210169
35	0x3d75bca1	0.059994344
36	0x3d13e984	0.03611137
37	0xbd02cfb6	-0.03193637
38	0x3c7d5e57	0.015464387
39	0xbc0ff15b	-0.008785571
40	0xbc293995	-0.01032867
41	0x3e1dac80	0.15397835
42	0xbd0d50ff	-0.034501072
43	0xbc5d6be7	-0.013514495
44	0x3c77ed21	0.0151322195
45	0x3c995925	0.018719265
46	0x3d52a630	0.05142802
47	0xbd0b6bfc	-0.03403853
48	0xbde2c975	-0.11073581
49	0x3d0c6d0b	0.03428368
50	0x3da88d71	0.08230103
51	0xbcf3b460	-0.029749095
52	0x3ca40273	0.0200207
53	0xbd4a3079	-0.049362633
54	0xbbcb815a	-0.0062104883
55	0x3c4a4e6d	0.0123478
56	0x3d821438	0.06351513
57	0xbc53c386	-0.012925034
58	0x3d8c31cc	0.068454355
59	0xbbe393aa	-0.006945093
60	0xbd4d2e5a	-0.050093032
61	0xbd025cd5	-0.031826813
62	0xbc709c87	-0.0146857565
63	0xbdd4b47c	-0.10385987
64	0xbde55b05	-0.11199001
65	0xbd475671	-0.04866642
66	0xbe0b8884	-0.13626295
67	0xbdf2c1bd	-0.11853359
68	0x3d7247c8	0.059150487
69	0xbd9db597	-0.07700651
70	0xbd79dbe1	-0.06100071
71	0x3ca8e48d	0.020616794
72	0xbd3e7762	-0.04650057
73	0x3df670c4	0.12033227
74	0x3c9f26fb	0.019427767
75	0x3bf6ea28	0.007535238
76	0xbd8ab9af	-0.067736976
77	0xbcb19c49	-0.021680968
78	0x3d11c738	0.03559038
79	0x3b1db5bc	0.002406462
80	0xbc4e3155	-0.012585004
81	0xbc5a029d	-0.013306287
82	0xbd14eec5	-0.03636052
83	0xbc3574a9	-0.011075177
84	0xbba70b9d	-0.00509782
85	0xbd734e4c	-0.05940084
86	0x3cb27a1e	0.021786746
87	0xbd756652	-0.059912033
88	0xbd01cd61	-0.031690005
89	0x3cc87b66	0.024472903
90	0xbd7e6bbd	-0.062114466
91	0xbc4c59ea	-0.012472609
92	0xbdc73912	-0.09727682
93	0xbb65ac2a	-0.0035045245
94	0xbde94861	-0.11390758
95	0xbd790710	-0.06079775
96	0xbd7b3868	-0.06133309
97	0xbd25c108	-0.040467292
98	0xbd23dfb1	-0.04000825
99	0x3c9dab43	0.019246703
100	0xbd2b9e20	-0.041898847
101	0xbbe920df	-0.0071145142
102	0x3d8546cd	0.06507645
103	0xbdc1cf07	-0.094633155
104	0x3db2b9c4	0.08726838
105	0xbc8b3935	-0.016995052
106	0xbdc1b941	-0.094591625
107	0x3d551860	0.0520252
108	0x3d02fb38	0.031977862
109	0xbd109319	-0.035296533
110	0x3d4bf7fe	0.04979705
111	0xbc58224a	-0.013191769
112	0xbd436512	-0.04770381
113	0xbd9035f2	-0.07041539
114	0xbd865325	-0.06558827
115	0xbd0ab48c	-0.03386359
116	0xbc9fb4c4	-0.019495375
117	0x3ca34559	0.019930528
118	0xbde4ceb7	-0.1117224
119	0xbd95339f	-0.072852366
120	0x3dba9418	0.09110278
121	0xbdf8ebf2	-0.12154378
122	0x3d60967c	0.054831013
123	0x3c5abb86	0.013350373
124	0xbdf540e8	-0.119752705
125	0xbc99c63d	-0.018771285
126	0x3d830d92	0.06399073
127	0x3daffc97	0.085930996
128	0x3e03f046	0.12884626
129	0xbd831137	-0.06399768
130	0x3d70343b	0.05864356
131	0x3d9ad0c6	0.075593516
132	0xbd13dd1f	-0.03609955
133	0x3b9e889a	0.0048380615
134	0x3d935b3d	0.07195137
135	0xbbbe2436	-0.0058026565
136	0x3d007401	0.03136063
137	0x3c8de8a1	0.01732284
138	0xbca21791	-0.019786628
139	0x3d528f7b	0.051406365
140	0x3d8f6e4f	0.070034616
141	0xbd1ff77a	-0.03905437
142	0x3d01301c	0.03154002
143	0xbcab7508	-0.020929828
144	0x3ce1ad01	0.027548315
145	0xbdd1e208	-0.1024819
146	0x3c41dbb7	0.011832169
147	0x3c8eded8	0.017440245
148	0xbcf3999d	-0.029736334
149	0x3d13b248	0.036058694
150	0xbb2b62bc	-0.002615138
151	0xbdbd08a4	-0.09230164
152	0x3c254c9c	0.010089066
153	0xbdbda3cc	-0.092597574
154	0x3c0136cc	0.0078866
155	0xbdd6679f	-0.10468983
156	0xbcd5cafb	-0.026097765
157	0xbdc7b403	-0.097511314
158	0xbd1fbfc9	-0.03900126
159	0xbd644a54	-0.055734947
160	0xbd4db4b3	-0.050221156
161	0x3ca95cb4	0.020674087
162	0xbcc9bd83	-0.024626499
163	0xbd9c6ffd	-0.076385476
164	0xbc846674	-0.016162135
165	0xbd153a09	-0.0364323
166	0xbd4bf0bd	-0.049790133
167	0x3c93b862	0.018032257
168	0x3bdfc4b2	0.006828868
169	0xbe001f03	-0.1251183
170	0x3d1d8bfe	0.038463585
171	0xbd173d1d	-0.036923517
172	0x3c0f7380	0.008755565
173	0xbd0e7f37	-0.03478929
174	0xb8e477a3	-0.00010894171
175	0xbc948d05	-0.01813365
176	0xbd8aa1f3	-0.067691706
177	0x3d0f364c	0.03496389
178	0x3c567981	0.013090492
179	0xbd2b746b	-0.04185907
180	0xbccb1d8b	-0.02479436
181	0xbd9dd7c4	-0.0770717
182	0x3d1805b6	0.03711482
183	0xbce96d2b	-0.028494438
184	0xbdbdc4a9	-0.092660256
185	0xbd66ba92	-0.05633027
186	0xbd9a5301	-0.07535363
187	0xbd437ae8	-0.047724634
188	0x3c8add45	0.016951213
189	0xbb5a3cbb	-0.0033300358
190	0xbd15bb80	-0.036555767
191	0xbce6e5c1	-0.028185727
192	0xbc3c9530	-0.011510178
193	0xbddae99b	-0.10689088
194	0xbc5464df	-0.012963503
195	0xbd3e3f0b	-0.04644684
196	0xbe1cbcab	-0.15306346
197	0x3da38920	0.07985139
198	0xbdac6f0e	-0.084196195
199	0xbd16f40a	-0.036853828
200	0xbcbef4be	-0.023310062
201	0xbdd9140e	-0.10599528
202	0x3d2c4d2c	0.042065784
203	0xbdb6c5f7	-0.089244775
204	0xbdc20599	-0.09473724
205	0x3c6b9a34	0.014380027
206	0xbdbc5fd3	-0.091979645
207	0x3d8853e4	0.06656626
208	0x3da8e8fe	0.08247565
209	0x3d5b4cbd	0.05353998
210	0x3d3a3901	0.04546452
211	0x3d2427da	0.040077068
212	0x3d70773b	0.058707457
213	0x3d8d970f	0.06913578
214	0xbd6aa191	-0.057282988
215	0x3c5c278a	0.013437161
216	0xbd705e58	-0.058683723
217	0xbd122abd	-0.03568529
218	0xbd103ce0	-0.035214305
219	0xbce02121	-0.027359547
220	0xbdca8ea1	-0.098904856
221	0xbd05512a	-0.032548107
222	0x3c887356	0.016656559
223	0xbde11d10	-0.10991871
224	0xbade1d07	-0.0016945907
225	0xbd7cabb3	-0.061687183
226	0x3c02e067	0.007988072
227	0xbd3f4331	-0.046694938
228	0xbcff143e	-0.031137582
229	0xba06949e	-0.000513384
230	0xbcce9c88	-0.025221124
231	0xbcb16fc8	-0.021659747
232	0xbcdf8ed8	-0.027289793
233	0x3bb7c9bd	0.005608766
234	0x3d73f65a	0.05956111
235	0xbd65b554	-0.05608113
236	0x3c8ae8af	0.016956655
237	0x3c99a81f	0.018756924
238	0xbdc378ef	-0.095445506
239	0x3d2bd76b	0.041953485
240	0x3d8528b5	0.06501905
241	0xbdb6c169	-0.08923609
242	0xbd62e85e	-0.055397384
243	0xbd82a973	-0.06379976
244	0x3d9676e5	0.07346896
245	0xbd392274	-0.045198873
246	0xbd6a16d0	-0.057150662
247	0x3c98b4d7	0.018640919
248	0x3ccb1a83	0.024792915
249	0x3cdc7b83	0.026914364
250	0x3d681352	0.05665905
251	0xbd59e166	-0.053193472
252	0xbca4f9e6	-0.020138692
253	0xbdf3005c	-0.11865303
254	0xbd46d9e3	-0.048547637
255	0xbb96a383	-0.004597129

cnn_model_1.conv3.0.bias f4 [64]
0	0xbdd2517b	-0.102694474
1	0xbd925065	-0.0714424
2	0xbd6269a7	-0.05527654
3	0x3cb27c13	0.021787679
4	0xbdbf879c	-0.09352037
5	0xbd1cb355	-0.03825696
6	0x3c967c9c	0.018369965
7	0xbd9cab23	-0.07649829
8	0xbbe9ef56	-0.007139127
9	0xbd6550f0	-0.05598539
10	0xbd477942	-0.048699625
11	0xbd5a4bb6	-0.05329486
12	0x3cf7a054	0.030227818
13	0xbdbc3424	-0.091896325
14	0xbdb6793f	-0.089098446
15	0x3c38180e	0.011236204
16	0x3c50cd4f	0.012744262
17	0xbd3caea2	-0.04606498
18	0xbd81e4e0	-0.063424826
19	0x3c27c036	0.010238698
20	0xbd70bc19	-0.058773134
21	0xbe1ae41f	-0.15126084
22	0xbda8ca6a	-0.082417324
23	0xbdb76cb6	-0.08956282
24	0xbd0adf2b	-0.033904236
25	0xbd792574	-0.060826734
26	0xbd3d4cf5	-0.04621597
27	0xbd30221e	-0.043001287
28	0xbd5bd79f	-0.05367243
29	0xbb8b607a	-0.0042534443
30	0x3cc646b1	0.02420363
31	0x3d1026a0	0.035193086
32	0xbda48773	-0.080336474
33	0xbd014ea5	-0.031569142
34	0xbdcb6917	-0.09932154
35	0xbdc315b3	-0.09525623
36	0xbd7ed36d	-0.06221335
37	0xbdad3a44	-0.08458379
38	0xbd647335	-0.055773932
39	0xbe03a5fa	-0.12856284
40	0xbd879c06	-0.06621556
41	0xbc985135	-0.01859341
42	0xbd71014d	-0.05883913
43	0xbd9d926a	-0.07693942
44	0xbda96d3b	-0.08272787
45	0xbd84dad2	-0.06487049
46	0xbe327679	-0.17428006
47	0xbca76d38	-0.020437822
48	0x3d22f9b5	0.03978892
49	0xbc4d1c69	-0.012518981
50	0xbd0b941f	-0.034076806
51	0xbc00dc86	-0.007865077
52	0xbd9ce388	-0.07660586
53	0xbdbe2337	-0.092840604
54	0xbdaf3376	-0.08554737
55	0x3c8f3668	0.017481998
56	0xbe08c7ac	-0.13357419
57	0xbd3f5b87	-0.046718147
58	0xbd9eb7e4	-0.07749918
59	0xbd858b67	-0.065207295
60	0xbd061391	-0.032733504
61	0xbcab4307	-0.020905985
62	0xbc2d2a22	-0.010569127
63	0x3cca191d	0.024670178

cnn_model_2.conv5.weight f4 [64, 64, 5, 5]
0	0xbd0a52f5	-0.03377052
1	0xbcfa0938	-0.030521974
2	0x3d177e09	0.03698543
3	0x3cd1ac78	0.025594935
4	0x3d099dfc	0.03359793
5	0x3be80a01	0.0070812707
6	0xbcaf32d8	-0.021386549
7	0x3cbbd2ba	0.02292763
8	0x3c4d92a7	0.012547172
9	0x3a8958ac	0.0010478697
10	0x3c3cf301	0.011532546
11	0xbc33bd8c	-0.010970484
12	0xbbfc897a	-0.007706818
13	0x3bd164c0	0.006390184
14	0xbcb7e223	-0.022446698
15	0xbd08797a	-0.033318974
16	0xba37bd3c	-0.0007009094
17	0xbd395eaf	-0.045256313
18	0x3ba991c0	0.0051748455
19	0xbbc9bb2c	-0.006156346
20	0xbd2eff8a	-0.04272417
21	0x3d05366d	0.032522608
22	0xbaf872c9	-0.0018955107
23	0xbca0167f	-0.019541977
24	0x3cce7306	0.025201332
25	0x3c7f9f1e	0.015601901
26	0x3c092ebb	0.008372958
27	0xbb8c0a1e	-0.004273667
28	0x3cf7be69	0.030242162
29	0x3bc70d97	0.006074618
30	0xbc7fcb9f	-0.015612512
31	0x3bbf02a0	0.0058291703
32	0x3cb02b1d	0.021504933
33	0xbc7bbc98	-0.0153647885
34	0x3bdad32d	0.006678006
35	0x3c2cf5d4	0.010556657
36	0x3cd033ae	0.025415268
37	0xbc740949	-0.014894792
38	0xbcb63971	-0.022244187
39	0xbc486898	-0.012231968
40	0xbce3b7da	-0.027797628
41	0x3c8eb9b2	0.01742253
42	0x3c158682	0.009126307
43	0xbc3ad4b6	-0.011403253
44	0xbbf0e2a3	-0.007351236
45	0xbced8eef	-0.02899882
46	0xbc7e14e8	-0.015507914
47	0x3c916704	0.017749317
48	0x3c89033a	0.016725171
49	0xbc9da882	-0.01924539
50	0xbb839107	-0.0040150913
51	0x3b4773f0	0.0030434094
52	0xbd2becf3	-0.04197402
53	0x3df5cf46	0.12002425
54	0x3d758a89	0.05994657
55	0xbcc4012f	-0.023926346
56	0xbd10bffd	-0.035339344
57	0xbda9717b	-0.08273598
58	0xbc23dcae	-0.010001345
59	0xbd1284dc	-0.035771236
60	0xbcb4bb27	-0.022061897
61	0xbca31570	-0.019907683
62	0xbda1a1f6	-0.0789222
63	0xbcc543b7	-0.02408014
64	0xbdaa4861	-0.083145864
65	0xbd9fd96b	-0.07805141
66	0xbd53f1f7	-0.051744428
67	0xbdd8eecd	-0.10592423
68	0xbd9097a4	-0.07060173
69	0xbda65b77	-0.08122914
70	0x3cd46b53	0.025930082
71	0x3d315d73	0.04330201
72	0x3c69ba93	0.014265674
73	0x3a9cea3c	0.0011971663
74	0xbcceb6f5	-0.025233725
75	0xbc408bcd	-0.011752081
76	0x3c605efc	0.013694521
77	0x3bd72446	0.0065656034
78	0xbbd351d1	-0.0064489623
79	0xbc3f851d	-0.0116894515
80	0x3c52431e	0.012833385
81	0xbc8618c5	-0.016369233
82	0x3c362d9d	0.0111192735
83	0x3c8eea78	0.017445788
84	0x3c67e321	0.014153273
85	0xbae83ce2	-0.001771834
86	0xbb87c568	-0.0041434057
87	0xbc97c841	-0.018528106
88	0xbc313f62	-0.010818334
89	0x3c3e70b5	0.011623551
90	0x3cbdef34	0.02318535
91	0xbc4ca38b	-0.012490164
92	0xbc451f2a	-0.012031356
93	0xbc84f289	-0.016228931
94	0x3cefe8fd	0.029285902
95	0xbc9a24f2	-0.018816445
96	0x3c856e68	0.016287997
97	0xba9e5b87	-0.0012081721
98	0xbccede1f	-0.0252524
99	0xbc14bd2e	-0.009078307
100	0xbd8cc173	-0.06872835
101	0xbb6dc621	-0.0036281424
102	0x3c7655c2	0.015035095
103	0x3d31fb9c	0.043452844
104	0x3c48451b	0.012223507
105	0xbd841c34	-0.06450692
106	0xbd18cd05	-0.037304897
107	0xbc0b9b63	-0.008520934
108	0x3d666175	0.056245286
109	0x3d2be4ec	0.041966364
110	0xbc749eac	-0.014930408
111	0xbc9c4d63	-0.01907987
112	0xbd053fb6	-0.032531463
113	0xbcad9a2e	-0.021191683
114	0x3bbbdec3	0.0057333424
115	0xbccf7d8a	-0.025328416
116	0xbc8e0d7d	-0.017340416
117	0xbcc7eefd	-0.02440595
118	0xbd28a511	-0.041173045
119	0x395fa3d9	0.00021327975
120	0x3c5ff5a1	0.013669402
121	0x3d802600	0.06257248
122	0x3d18d403	0.037311565
123	0x3ce90eac	0.028449379
124	0xbc599343	-0.013279739
125	0xbae1ea0d	-0.001723589
126	0xbc0fcaf5	-0.008776416
127	0xbc45b5d2	-0.012067275
128	0x3bc3cf0d	0.00597561
129	0xbcb9f61b	-0.02270036
130	0x3b134167	0.0022469403
131	0x3b25de97	0.0025309676
132	0xbc4c49d5	-0.012468775
133	0xbc84deb6	-0.016219478
134	0x3c9c8215	0.019104997
135	0x3cd20af5	0.02563999
136	0xbc3de15f	-0.011589377
137	0xbac7fd26	-0.0015257939
138	0xbbec707c	-0.0072155576
139	0xbcc9d351	-0.024636896
140	0x3cb53247	0.0221187
141	0xbce87293	-0.028374946
142	0x3a09754b	0.0005243613
143	0x39c46ac6	0.00037463586
144	0xba947ac6	-0.0011328093
145	0x3cd45a30	0.025921911
146	0xbb8d72c2	-0.0043166587
147	0x3c913bda	0.017728735
148	0x3b861e95	0.004093001
149	0xbc6eed5e	-0.01458296
150	0x3c3879a8	0.011259474
151	0x3d398444	0.045292154
152	0x3c0c7fd4	0.0085753985
153	0xbc72afc5	-0.014812415
154	0x3cbafabe	0.022824641
155	0x3b84599c	0.0040390026
156	0x3c3161cf	0.010826542
157	0xbb049aca	-0.0020233863
158	0x3b21de54	0.0024699168
159	0x3b32bea6	0.002727428
160	0xbca1d44a	-0.019754548
161	0xbc7ea1dd	-0.015541521
162	0xbc4dbd12	-0.012557285
163	0x3cfd8941	0.030949237
164	0xbca6491b	-0.020298531
165	0xbc23a725	-0.009988581
166	0x3c1947c1	0.009355486
167	0xbc2971c9	-0.01034207
168	0xba998713	-0.0011713229
169	0xbc9834e5	-0.01857991
170	0x3d067ee6	0.032835864
171	0x3c4070a1	0.011745603
172	0xbbf5f748	-0.007506285
173	0xbce3a950	-0.027790695
174	0x3b29b688	0.002589615
175	0x3c53868e	0.012910498
176	0xbc4cad5d	-0.012492505
177	0x3c2732c7	0.010204977
178	0x3ce93694	0.028468408
179	0x3dc25d7a	0.094904855
180	0x3d364163	0.04449595
181	0x3d2b1918	0.04177198
182	0xbd1426a7	-0.036169674
183	0x3d443727	0.04790416
184	0x3c643f05	0.013931041
185	0x3d02503a	0.03181479
186	0x3d1449bf	0.036203142
187	0xbd72c01c	-0.05926524
188	0x3c457c19	0.012053513
189	0x3cedef39	0.029044734
190	0xbda53eb0	-0.08068597
191	0x3c06d065	0.008228396
192	0xbcf8a4b9	-0.030351983
193	0xbd995b05	-0.07488064
194	0xbd3b9786	-0.0457988
195	0x3d8eab2a	0.06966241
196	0x3d71ca2e	0.059030704
197	0x3cefe8c1	0.02928579
198	0x3df75be9	0.12078077
199	0xbd224eb0	-0.039625823
200	0xbcd6de37	-0.026229007
201	0xbbab3c71	-0.005225711
202	0xbc8d06d1	-0.017215164
203	0x3c8d9210	0.017281562
204	0x3c65ff97	0.014037988
205	0xbd0e84f7	-0.034794774
206	0x39f8cc4c	0.0004745446
207	0xbd1b201a	-0.03787241
208	0xbd04e08b	-0.032440703
209	0xbd0e4e0c	-0.0347424
210	0xbd2af3cf	-0.04173642
211	0xbd7d2df5	-0.061811406
212	0xbd2ff0c9	-0.04295424
213	0xbcee079f	-0.029056368
214	0xbd3fbee8	-0.04681292
215	0xbd89c736	-0.067274496
216	0xbc15e4cf	-0.0091487905
217	0xbd0ac5aa	-0.033879913
218	0xbe03f1bf	-0.12885188
219	0xbde48019	-0.11157245
220	0x3cde8ff0	0.027168244
221	0x3db7761c	0.089580745
222	0x3d6a64d0	0.05722505
223	0x3da7a5ef	0.08185946
224	0xbc5538b5	-0.013014008
225	0x3c8fe5cf	0.017565636
226	0xbd032f8f	-0.032027777
227	0xbd8d3ee1	-0.06896759
228	0x3caf4de7	0.021399451
229	0x3d8b2f72	0.06796159
230	0x3c4d470e	0.012529148
231	0xbac11e5f	-0.0014733783
232	0xbdddddfa	-0.10833354
233	0x3ccea423	0.02522475
234	0xbb9d1000	-0.004793167
235	0xbd0dae55	-0.034590084
236	0xbd0456e3	-0.032309424
237	0xbd86885a	-0.06568976
238	0xbd676a1f	-0.05649769
239	0x3cde9c28	0.02717407
240	0xbde0f4f7	-0.10984223
241	0xbd124257	-0.035707798
242	0xbd0c145d	-0.034199107
243	0xbdaaf55d	-0.083475806
244	0xbd606ca6	-0.054791115
245	0x3d4b1241	0.049577955
246	0x3d08a696	0.033361994
247	0x3db2b142	0.087252155
248	0x3ce4faa7	0.027951552
249	0xbca73789	-0.020412223
250	0xbd048ee3	-0.03236283
251	0xbd0f00d8	-0.034912914
252	0xbd61094f	-0.054940518
253	0xbd20ff85	-0.039306182
254	0x3b97e201	0.004635096
255	0xbd208a97	-0.03919467

cnn_model_2.conv5.bias f4 [64]
0	0x3c78d954	0.015188534
1	0xbbeb2c55	-0.0071769156
2	0x3c31801c	0.010833766
3	0x3badc43c	0.005302934
4	0x3af0ba1d	0.0018366013
5	0x3b7321b4	0.0037098946
6	0x3becbe45	0.0072248303
7	0xba91198a	-0.0011070233
8	0xbcae4ebd	-0.02127778
9	0x3c8d1cab	0.017225584
10	0x3ba60217	0.005066167
11	0x3c8db087	0.017296089
12	0xbaf908ff	-0.0018999873
13	0x3cc27be3	0.023740714
14	0xbca7cda5	-0.020483801
15	0x3c374f50	0.011188343
16	0x3c863c64	0.016386218
17	0x3b980520	0.004639283
18	0x3cb1b88c	0.021694444
19	0x3c917429	0.017755585
20	0x3cdd2f0f	0.026999978
21	0x3ba35f5a	0.004985732
22	0xbad495e7	-0.0016218991
23	0x3be6fb0e	0.007048971
24	0xbbc443e5	-0.005989539
25	0x3cfab298	0.030602738
26	0xbc193442	-0.009350838
27	0xbc24e708	-0.010064848
28	0x3c5626b2	0.013070749
29	0xbaef70a0	-0.0018267818
30	0x3b03e874	0.0020127567
31	0x3cc2b8db	0.023769787
32	0xbb998209	-0.004684691
33	0x3bb79a29	0.005603094
34	0xbc30d7f2	-0.010793673
35	0x3b9c2879	0.004765567
36	0x3bd11f82	0.00638193
37	0xbbb20076	-0.005432184
38	0xbc088b04	-0.008333925
39	0x3cc4ba4b	0.024014613
40	0xbc678c90	-0.014132634
41	0xbc11e63c	-0.00890499
42	0x3b1597f6	0.0022826171
43	0xbb5c6012	-0.0033626598
44	0xbc6a3895	-0.014295717
45	0x3c0e3bfe	0.008681295
46	0x3c31b13d	0.01084548
47	0x3c9ec8f8	0.019382939
48	0xbaa34591	-0.0012456645
49	0xbc298de4	-0.010348771
50	0x3cd2a0fe	0.025711533
51	0x3a104c2a	0.00055045134
52	0x3c483d2f	0.012221619
53	0xbc9a4623	-0.018832272
54	0xbbad3116	-0.0052853925
55	0xbb9a5480	-0.00470978
56	0xbc8a1eda	-0.016860414
57	0xbc0e3112	-0.008678691
58	0xbca3af06	-0.019980919
59	0xbc56f5e8	-0.013120152
60	0xbca4eca8	-0.020132378
61	0x3b2c0f00	0.0026254058
62	0x3ca5f0c4	0.020256408
63	0xbb05a2bc	-0.0020391187

cnn_model_2.bn5.weight f4 [64]
0	0x3f83bc72	1.0291884
1	0x3f86c692	1.0529349
2	0x3f85ebba	1.0462563
3	0x3f45bb25	0.77238685
4	0x3f5b9ad2	0.8578311
5	0x3f5bb24c	0.85818934
6	0x3f5d49c0	0.8644066
7	0x3f61c80f	0.8819589
8	0x3f77680f	0.96643156
9	0x3f8349f9	1.025695
10	0x3f877e04	1.0585332
11	0x3f4fc202	0.8115541
12	0x3f6b0a93	0.9181301
13	0x3f875007	1.0571297
14	0x3f4b3e82	0.79392254
15	0x3f8b57e8	1.0886202
16	0x3f65e633	0.8980438
17	0x3f90346a	1.1265996
18	0x3f576e0e	0.84152305
19	0x3f9084bf	1.1290511
20	0x3f5adc23	0.8549215
21	0x3f88c175	1.0684038
22	0x3f81b716	1.0133998
23	0x3f8048db	1.0022234
24	0x3f8a6e88	1.0814981
25	0x3f7017ed	0.9378651
26	0x3f7827b8	0.96935606
27	0x3f8176be	1.0114362
28	0x3f4fcdfe	0.81173694
29	0x3f6ca4b8	0.9243884
30	0x3f83d9d2	1.0300848
31	0x3fa0116f	1.250532
32	0x3f83121f	1.0239905
33	0x3f87a8fc	1.0598445
34	0x3f63a0ea	0.8891741
35	0x3f93825d	1.1524159
36	0x3f641e1d	0.8910845
37	0x3f76fa62	0.96475804
38	0x3f63420f	0.8877267
39	0x3f913eab	1.134725
40	0x3f751019	0.9572769
41	0x3f6f18a1	0.93396956
42	0x3f890b4d	1.0706574
43	0x3f647471	0.89240175
44	0x3f8b9cb3	1.0907196
45	0x3f86a8fe	1.0520322
46	0x3f8da005	1.1064459
47	0x3f8dd958	1.1081953
48	0x3f81d798	1.0143919
49	0x3f8a0818	1.078372
50	0x3f7655fc	0.9622495
51	0x3f81f078	1.015151
52	0x3f82fb21	1.0232888
53	0x3f85fdaf	1.0468043
54	0x3f6c1ef4	0.9223473
55	0x3f6a6c51	0.9157153
56	0x3f8e77a8	1.1130266
57	0x3f49a6df	0.7877025
58	0x3f4301d3	0.7617466
59	0x3f78935b	0.97099847
60	0x3f888ced	1.0668007
61	0x3f82b6e5	1.0212065
62	0x3f5eb317	0.8699202
63	0x3f8de9fb	1.108703

cnn_model_2.bn5.bias f4 [64]
0	0xbd9ebb89	-0.07750613
1	0xbda1d14c	-0.07901248
2	0xbe4a64ee	-0.19765064
3	0xbdd03dcc	-0.10168037
4	0xbb2167ad	-0.0024628446
5	0x3d05e4ee	0.032689027
6	0xbe850fa4	-0.25988495
7	0xbe60e5f5	-0.21962722
8	0x3cea3b57	0.028592749
9	0x3d74f9fe	0.059808724
10	0xbddddc20	-0.10833001
11	0x3d9fd194	0.07803646
12	0xbda7c8f6	-0.08192627
13	0xbd7a5b48	-0.06112221
14	0xbbd7b730	-0.006583117
15	0xbb40a685	-0.0029396128
16	0xbd1c7a8a	-0.0382028
17	0xbdd7c1ab	-0.10534986
18	0xbdc477dd	-0.095931746
19	0xbe1cc7ac	-0.15310544
20	0x3c832a37	0.01601134
21	0xbd4e883b	-0.05042289
22	0x3e2c23a2	0.16810468
23	0xbe513ea5	-0.20434053
24	0xbb255714	-0.0025228905
25	0xbd9ba30e	-0.075994596
26	0x3daef76e	0.08543287
27	0xbe00bdfc	-0.12572473
28	0x3ca3d19e	0.019997414
29	0x3ca4b94f	0.020107893
30	0xbd37782d	-0.044792343
31	0xbd59fab0	-0.05321759
32	0x3cf9e07f	0.030502556
33	0xbdcc5cc8	-0.09978634
34	0xbd52d9cd	-0.051477242
35	0x3c3947ba	0.011308605
36	0xbd94fce0	-0.072747946
37	0xbe201dc0	-0.15636349
38	0xbe09291f	-0.13394593
39	0x3cb6fb8c	0.022336744
40	0x3da1f393	0.07907786
41	0xbe16c194	-0.14722282
42	0xbdaaa440	-0.083321095
43	0xbe54f7ce	-0.20797655
44	0xbd4f163f	-0.050558325
45	0x3d2b672b	0.041846436
46	0x3c97bb02	0.01852179
47	0x3d9d0a70	0.076680064
48	0xbd44a278	-0.048006505
49	0xbdd92147	-0.1060205
50	0xbe1d0eef	-0.15337728
51	0xbcb13939	-0.021633731
52	0x3df0d351	0.117590554
53	0x3c7aeba0	0.015314966
54	0xbe1cf48c	-0.15327662
55	0x3cd5a2dc	0.026078634
56	0x3d2ff21b	0.0429555
57	0xbd932e9f	-0.07186627
58	0xbea5d7e8	-0.32391286
59	0xbe496db0	-0.19670749
60	0xbdafd1db	-0.08584949
61	0xba5705ce	-0.0008202464
62	0xbe77935a	-0.24177304
63	0x3d87677b	0.06611534

cnn_model_2.bn5.running_mean f4 [64]
0	0xc1855633	-16.66709
1	0xc1a73d14	-20.904823
2	0x41191aad	9.569013
3	0x418468c6	16.551159
4	0x414f86aa	12.970377
5	0x40fa674c	7.8251095
6	0xc178e6ea	-15.5563755
7	0xc1987cb5	-19.060892
8	0x40a2bf57	5.085857
9	0x3f8340c0	1.0254135
10	0xc13dffdc	-11.874966
11	0x418d8887	17.691664
12	0x40ccdcf2	6.401971
13	0xc0257381	-2.5851748
14	0x4171fb79	15.123895
15	0x406ec9da	3.73107
16	0x41a4cd3f	20.600218
17	0x3fb790b2	1.4341033
18	0x41a4c6fc	20.59716
19	0x3fc18a90	1.5120411
20	0x412220a6	10.132971
21	0xc0870e28	-4.220478
22	0x40bf2013	5.9726653
23	0xc195958a	-18.698017
24	0x40ddb62f	6.928489
25	0x41468576	12.407583
26	0x410dcc82	8.862429
27	0xc197aac3	-18.95838
28	0x414ef154	12.933918
29	0x40b4a487	5.645084
30	0x4022dbc0	2.5446625
31	0xc0b513fe	-5.6586905
32	0xc06f1d65	-3.736169
33	0xc14da9bf	-12.853942
34	0xc0e39fba	-7.113248
35	0xc00428d0	-2.064991
36	0x41a50492	20.627232
37	0x4106eee2	8.433321
38	0x415940cb	13.578319
39	0xc03ad4bd	-2.9192345
40	0xc08dcd93	-4.4313445
41	0xc19ac6d0	-19.347076
42	0xc1785367	-15.520362
43	0xc191eb2b	-18.239828
44	0xc18eeae0	-17.864685
45	0xc18e90d3	-17.820715
46	0xc1088c69	-8.53428
47	0xc0f4358c	-7.6315365
48	0xc1ab58b6	-21.418316
49	0x3f943357	1.1578168
50	0xc19f9a12	-19.95023
51	0x3f19e290	0.6011133
52	0x410458c7	8.271674
53	0xc1a74961	-20.91083
54	0x41698d9b	14.597072
55	0x41286f87	10.527228
56	0xc09bda5a	-4.8704042
57	0x4147a0c8	12.476753
58	0x41ac4934	21.535744
59	0xc17ed052	-15.925859
60	0xc1a0c929	-20.098223
61	0xc184dea1	-16.608706
62	0x41832c64	16.396675
63	0xc1a27661	-20.307802

cnn_model_2.bn5.running_var f4 [64]
0	0x43faa2c7	501.2717
1	0x44267e06	665.9691
2	0x43c62563	396.29208
3	0x44012bd9	516.6851
4	0x442d7112	693.7667
5	0x440e77bd	569.8709
6	0x43bde7fb	379.81235
7	0x440c883c	562.12866
8	0x43a352f0	326.64795
9	0x441234ac	584.823
10	0x43ef9010	479.1255
11	0x441340d5	589.013
12	0x43b6272f	364.30612
13	0x43d62cdf	428.35056
14	0x43ca1b7a	404.21466
15	0x4394b91b	297.44614
16	0x446c82ff	946.0468
17	0x43ab971e	343.1806
18	0x4454ad66	850.70935
19	0x43952319	298.2742
20	0x440222b9	520.54254
21	0x43d75dd2	430.73297
22	0x43f4f927	489.9465
23	0x43d3de8e	423.7387
24	0x43f22f45	484.3693
25	0x440ce0a0	563.50977
26	0x4402acd3	522.7004
27	0x43f633bb	492.40414
28	0x4405259b	532.5876
29	0x43c02f36	384.36884
30	0x43a07e00	320.98438
31	0x43b74a06	366.5783
32	0x440ae4f3	555.57733
33	0x4413cb2e	591.1747
34	0x43ce7d7d	412.98038
35	0x439e2a0e	316.32855
36	0x44562043	856.5041
37	0x43b236a6	356.42694
38	0x44168076	602.0072
39	0x43d31550	422.1665
40	0x43e16313	450.77402
41	0x4409dff0	551.499
42	0x43db9426	439.1574
43	0x43f86e2f	496.8608
44	0x442be494	687.57153
45	0x444a507b	809.2575
46	0x43ffcd25	511.6027
47	0x440e506b	569.25653
48	0x44560411	856.06354
49	0x43a3dccb	327.72495
50	0x441bc726	623.1117
51	0x43b84482	368.53522
52	0x44043d1d	528.9549
53	0x446cd5df	947.34174
54	0x440608b8	536.1362
55	0x440b5860	557.38086
56	0x43870d94	270.10608
57	0x43e9bc36	467.4704
58	0x447fd130	1023.26855
59	0x439cee86	313.86346
60	0x442999ab	678.40106
61	0x442b95fc	686.3435
62	0x442cad8d	690.71173
63	0x446280d9	906.01324

cnn_model_2.conv1.weight f4 [32, 64, 3, 3]
0	0xbd614e95	-0.055006582
1	0xbd96bbd1	-0.07360042
2	0xbcfba5fb	-0.030718794
3	0xbe37a695	-0.1793464
4	0xbe113a35	-0.1418236
5	0xbdfa28af	-0.12214791
6	0x3da709e5	0.08156184
7	0x3b84b5f0	0.004050009
8	0xbc396cd2	-0.011317449
9	0xbde0ba79	-0.10973067
10	0xbd76a66a	-0.0602173
11	0xbd7534ae	-0.059864692
12	0xbe1427d7	-0.14468323
13	0xbe45b0c1	-0.19305708
14	0xbe469019	-0.19390906
15	0xbd038d79	-0.03211734
16	0xbc8c1221	-0.017098488
17	0xbc83cff3	-0.016090369
18	0xbe0a66aa	-0.13515726
19	0xbdab1d8c	-0.08355245
20	0xbd655fd9	-0.05599961
21	0x3d0f6a06	0.03501322
22	0x3ce3d7eb	0.027812919
23	0xbdb2aecc	-0.08724746
24	0x3ce864e2	0.028368417
25	0x3b83529e	0.0040076515
26	0xbb5d3989	-0.0033756217
27	0xbcf8ebab	-0.030385813
28	0x3d845069	0.064606495
29	0x3d202aa0	0.03910315
30	0xbd0e3d20	-0.034726262
31	0x3d33d84f	0.04390746
32	0xbc00dfb7	-0.007865838
33	0xbd963ea4	-0.073361665
34	0xbd3f0514	-0.046635702
35	0xbd6d0fc6	-0.05787637
36	0xbc52932d	-0.012852472
37	0x3da9d521	0.08292604
38	0xbd649c07	-0.05581286
39	0x3d4d740f	0.05015951
40	0x3e0454c2	0.12922958
41	0xbd635b3b	-0.055506926
42	0xbcdbccfb	-0.02683114
43	0x3b84d40e	0.004053599
44	0x3c3d5e3e	0.011558114
45	0x3b782c02	0.0037868028
46	0x3d96a99c	0.07356569
47	0x3c919392	0.017770562
48	0x3e11fd8d	0.14256878
49	0x3d9b911e	0.07596038
50	0xbd8fd586	-0.07023148
51	0x3d18a794	0.03726919
52	0xbb0d963f	-0.0021604446
53	0xbd219ee8	-0.039458185
54	0xbc945eee	-0.018111672
55	0xbcda9353	-0.026681578
56	0xbdbad0d4	-0.09121862
57	0xbe087ae7	-0.13328134
58	0xbda91f8f	-0.082579724
59	0xbcfa390a	-0.030544776
60	0x3b2920f7	0.0025807002
61	0xbd087554	-0.033315018
62	0x3da03089	0.07821757
63	0xbd748449	-0.05969647
64	0xbd3d38dd	-0.046196807
65	0xbc1bbdd2	-0.009505706
66	0xbdc8e6ac	-0.09809622
67	0xbd0e4e87	-0.03474286
68	0xbc4ffb63	-0.012694213
69	0xbd91f362	-0.071265
70	0xbda97eb8	-0.08276123
71	0x3c1aa11e	0.009437827
72	0x3baecd87	0.0053345594
73	0x3a80281b	0.0009777577
74	0xbd4c41b5	-0.04986735
75	0x3c94289a	0.018085767
76	0x3c105bb3	0.008810925
77	0xbdc5f7e5	-0.09666423
78	0xbbe35057	-0.0069370675
79	0xbd619602	-0.0550747
80	0x3c8f7fc4	0.017516978
81	0x3da29e4e	0.079403505
82	0x3dbc0f99	0.091826625
83	0xbd7d1ddb	-0.06179605
84	0x3e2edee4	0.17077214
85	0x3e08a460	0.13343954
86	0xbdac4d7b	-0.08413216
87	0x3d879202	0.06619646
88	0x3e202edb	0.15642874
89	0xbda5aa4c	-0.08089122
90	0xbe14b557	-0.145223
91	0xbe0a61ed	-0.13513918
92	0xbdb65ecc	-0.089048
93	0x3d805e5e	0.06267999
94	0x3d5e93e9	0.054340277
95	0x3d272bfd	0.040813435
96	0x3dc176dc	0.09446499
97	0x3db8281b	0.089920245
98	0x3dc3f80f	0.09568798
99	0x3b51b575	0.0031999026
100	0x3d13478a	0.035956897
101	0xbc82ba7b	-0.015958061
102	0x3cc323a2	0.023820702
103	0x3dfe43f8	0.12415308
104	0x3c3bfd0f	0.011473908
105	0xbd890bcc	-0.06691703
106	0xbcf7dbe5	-0.030256221
107	0xbd4c331d	-0.049853433
108	0xbcfc8e38	-0.030829534
109	0xbb41a160	-0.002954565
110	0x3d3f7c6f	0.04674953
111	0xbd8725c0	-0.06598997
112	0x3d7dbfbf	0.06195044
113	0x3c56deeb	0.013114671
114	0xbce4aec0	-0.027915359
115	0x3dd42f01	0.10360528
116	0x3cc1de5e	0.023665603
117	0xbd6bfeba	-0.057615973
118	0xbe1e1e23	-0.15441184
119	0xbe35301e	-0.17694137
120	0xbda73614	-0.081646115
121	0xbdd5d634	-0.10441247
122	0xbd88fda5	-0.06689004
123	0x3d35e1bc	0.04440473
124	0xbd3df8ba	-0.046379782
125	0xbd97ae69	-0.07406313
126	0xbd480bce	-0.048839383
127	0x3d304e8c	0.043043658
128	0x39b13d3f	0.00033805703
129	0xbcc8d9ac	-0.024517857
130	0x3d6cfd27	0.057858612
131	0x3d29bb0f	0.04143816
132	0xbd8ac2c0	-0.06775427
133	0xbd3eb8d1	-0.046562973
134	0xbd1a403a	-0.037658907
135	0xbc859d2c	-0.016310297
136	0xbac9e045	-0.001540192
137	0xbd20ce6b	-0.039259356
138	0xbdb526c3	-0.08845284
139	0xbd42c4da	-0.047551014
140	0xbd5fc179	-0.05462787
141	0xbcc2684d	-0.023731375
142	0x3c7bca3d	0.015368042
143	0xbd4b796d	-0.049676348
144	0x3d8602e3	0.06543519
145	0x3d7b9a3a	0.06142638
146	0xbbc0bdd7	-0.0058820057
147	0x3db9776c	0.09055981
148	0x3e31523e	0.17316529
149	0x3d8495a5	0.06473855
150	0xbda9b10a	-0.08285721
151	0x3bf55f77	0.007488187
152	0xbd25c0e4	-0.040467158
153	0xbe655788	-0.22396672
154	0xbe853dd0	-0.26023722
155	0xbcd9bef2	-0.026580308
156	0xbdb8762f	-0.09006917
157	0xbe267ffa	-0.16259757
158	0xbc78a167	-0.0151752
159	0x3e0e215c	0.13879913
160	0x3db48869	0.08815081
161	0x3e17bebf	0.14818858
162	0x3c1acde7	0.009448505
163	0x3db880b1	0.09008921
164	0x3c40611c	0.011741903
165	0x3a91e3a3	0.0011130463
166	0x3da1fa1e	0.07909034
167	0xbc821cad	-0.015882814
168	0xbd53d154	-0.051713303
169	0xbc222e2e	-0.009898705
170	0x3ceb62c5	0.02873362
171	0xbe2ec4d7	-0.17067276
172	0xbd8cb2fe	-0.068700776
173	0xbdc02df4	-0.09383765
174	0xbdb7f054	-0.08981386
175	0x3abe0062	0.0014495964
176	0xbd98ec7b	-0.0746698
177	0x3d1927c4	0.03739144
178	0x3d7e0d59	0.062024448
179	0x3c15fed3	0.009154993
180	0xbd15028c	-0.036379382
181	0x3cc9fefa	0.024657715
182	0x3e05e960	0.13077307
183	0xbe155db1	-0.14586522
184	0xbd0c3c28	-0.034237057
185	0x3d94bed1	0.07262958
186	0xbd470cd1	-0.048596207
187	0x3c04989e	0.008093027
188	0x3bb44154	0.005500952
189	0x3c17dd3b	0.009269054
190	0xbdd843b1	-0.10559786
191	0xbe01e11c	-0.12683529
192	0xbda8e9de	-0.082477316
193	0xbbe220d5	-0.0069008865
194	0x3c408fea	0.011753062
195	0x3e0c15c1	0.13680173
196	0x3db89bbf	0.09014081
197	0x3dcaafe2	0.09896828
198	0xbc990975	-0.018681267
199	0x3c04ff60	0.008117527
200	0xbd86ef3a	-0.065885976
201	0x3ddd4084	0.10803321
202	0x3da97ac0	0.08275366
203	0xbd5c3c3c	-0.05376838
204	0xbdb28bb3	-0.08718052
205	0xbcdee335	-0.02720795
206	0xbccf5203	-0.02530766
207	0xbd90fa9d	-0.07079051
208	0xbd0fd201	-0.035112385
209	0xbc4e00da	-0.012573445
210	0xbaf6dfd3	-0.0018835015
211	0xbbd1bccb	-0.0064006797
212	0xbb79f805	-0.0038142216
213	0x3c1f6098	0.00972762
214	0x3cdd4656	0.027011078
215	0x3c311378	0.010807864
216	0xbda3e151	-0.0800196
217	0xbdb044be	-0.086068615
218	0xbd9f9674	-0.077923685
219	0xbb14f83c	-0.0022730967
220	0x3ccdc965	0.025120446
221	0xbd4e0815	-0.050300676
222	0x3d02383c	0.03179191
223	0x3de360e1	0.111024626
224	0x3d6349af	0.055490192
225	0x3d01caf8	0.031687707
226	0x3db0d6ae	0.08634697
227	0xbb3d53cf	-0.0028889065
228	0x3d406f83	0.046981346
229	0x3dcfffad	0.10156188
230	0xbd4e1fa4	-0.050323144
231	0x3bbe8013	0.0058136075
232	0x3da430e0	0.08017135
233	0xbc9c68ec	-0.019093
234	0x3c8d1b60	0.017224967
235	0x3dc2e625	0.09516553
236	0xbd024852	-0.03180725
237	0x3dead378	0.11466116
238	0x3e0ea626	0.13930568
239	0xbd99899d	-0.07496951
240	0x3c169a71	0.009192095
241	0x3da64c8f	0.08120071
242	0x3b80d8bd	0.003932087
243	0xbd0acb38	-0.03388521
244	0xbdb16b90	-0.08663094
245	0x3c47ff32	0.012206839
246	0xbdf60090	-0.12011826
247	0xbdab0b49	-0.08351762
248	0xbd903b8f	-0.0704261
249	0x3c99fca6	0.01879723
250	0xbba8585d	-0.005137487
251	0xba850fb0	-0.001015177
252	0xbd4bef06	-0.049788497
253	0x3d8d2e49	0.06893594
254	0x3a11dd8f	0.0005564326
255	0x3c5f6735	0.013635446

cnn_model_2.conv1.bias f4 [32]
0	0xbc3b08b3	-0.011415648
1	0x3b41fffa	0.0029602037
2	0x3ca00827	0.019535137
3	0x3c555e10	0.0130229145
4	0xbcea4e94	-0.028601922
5	0x3d5fd8f0	0.054650247
6	0xba3b7d98	-0.0007152199
7	0x3d1208a5	0.035652775
8	0xbb794020	-0.0038032606
9	0xbc8fc18e	-0.017548349
10	0x3d1b9f8b	0.03799395
11	0xbd3ce437	-0.04611608
12	0x3ae78d22	0.0017665962
13	0xbc7e5eb1	-0.015525506
14	0xbd178797	-0.036994543
15	0x3ce760b7	0.02824436
16	0x3d24d26a	0.04023973
17	0xbb925e24	-0.004466789
18	0x3d3fcb65	0.04682483
19	0xbc887830	-0.016658872
20	0x3bba9d37	0.005695011
21	0x3c7320c5	0.014839356
22	0x3c7c9669	0.01541672
23	0x3c7074b2	0.01467626
24	0x3cf3a947	0.029743804
25	0xbc8ebb3c	-0.017423265
26	0xbd233074	-0.03984113
27	0x3c8fe98c	0.017567419
28	0xbd099b45	-0.033595342
29	0x3d321f58	0.043486923
30	0xbd3e1810	-0.046409667
31	0x3d1efbe2	0.038814433

cnn_model_2.bn1.weight f4 [32]
0	0x3f74e055	0.95654804
1	0x3f73719d	0.95095235
2	0x3f773e22	0.9657918
3	0x3f4a415b	0.79005975
4	0x3f8a6be6	1.0814178
5	0x3f88f4b3	1.0699676
6	0x3f86f602	1.0543826
7	0x3f890314	1.0704064
8	0x3f7d54d1	0.98957545
9	0x3f6836ce	0.90708625
10	0x3f7132d5	0.9421819
11	0x3f860829	1.047124
12	0x3f7a04ca	0.9766356
13	0x3f88c733	1.0685791
14	0x3f6c0044	0.92187905
15	0x3f8062ec	1.0030189
16	0x3f8a15f9	1.0787956
17	0x3f733bbf	0.9501304
18	0x3f7e0238	0.99222136
19	0x3f5d9411	0.86554056
20	0x3f6db519	0.9285446
21	0x3f893a40	1.0720901
22	0x3f84542e	1.033819
23	0x3f86c5b2	1.0529082
24	0x3f83c0ee	1.0293252
25	0x3f856c6c	1.0423713
26	0x3f7889af	0.9708509
27	0x3f7020ae	0.93799865
28	0x3f7cc46e	0.9873723
29	0x3f7e7fef	0.9941396
30	0x3f7aa62a	0.97909796
31	0x3f872b51	1.0560094

cnn_model_2.bn1.bias f4 [32]
0	0xbd83612a	-0.06415017
1	0xbc8f3db7	-0.017485483
2	0xbdf8cae5	-0.12148074
3	0xbe86beab	-0.26317343
4	0xbd915c60	-0.07097697
5	0xbd77b047	-0.060470846
6	0xbdaad2fd	-0.08341024
7	0xbd9612ae	-0.073277816
8	0xbdf08a2b	-0.117451034
9	0xbddec3a0	-0.10877156
10	0xbde6210a	-0.112367705
11	0xbe5201ac	-0.2050845
12	0xbda249b1	-0.07924212
13	0xbbb7e5a4	-0.005612092
14	0xbe967d73	-0.29392585
15	0xbdc6d66b	-0.09708866
16	0xbdedc6dc	-0.11610195
17	0xbd386161	-0.045014743
18	0xbb7e95c4	-0.0038846591
19	0xbe6d98e4	-0.23202854
20	0xbdd87fd3	-0.105712555
21	0xbe16819f	-0.14697884
22	0x3c56a3e7	0.013100601
23	0xbdeb99e5	-0.115039624
24	0x3cb13403	0.021631246
25	0x3ceba192	0.028763566
26	0xbdfdb8dd	-0.123887755
27	0xbe094800	-0.13406372
28	0xbe25eb8d	-0.16203137
29	0xbda0d0d6	-0.07852332
30	0xbe00998c	-0.12558573
31	0xbdd20830	-0.10255468

cnn_model_2.bn1.running_mean f4 [32]
0	0xc0ace808	-5.403324
1	0xc0a4f72d	-5.155173
2	0x3fb38cf4	1.402739
3	0x40c45246	6.135043
4	0x40219a5d	2.5250466
5	0x405ea10b	3.4785793
6	0x3ff590ef	1.9184855
7	0xbfc3a29c	-1.5284
8	0xc0d34f45	-6.6034265
9	0xc0a9f6f3	-5.311395
10	0xc1023920	-8.138947
11	0xbf636f93	-0.88842124
12	0xc0d2537d	-6.5726914
13	0x40ae93d0	5.4555435
14	0x3fa38238	1.2774115
15	0xc07c6dfd	-3.9442132
16	0x3fff28d4	1.9934335
17	0xbfc87490	-1.5660572
18	0xc0ce7d2f	-6.452781
19	0x403d5a5b	2.9586399
20	0xc03e17af	-2.9701955
21	0xbf102b3e	-0.5631598
22	0xc10259a0	-8.146881
23	0xbfb8cdaa	-1.4437764
24	0xc0eb8c5b	-7.360883
25	0xc04e3134	-3.2217531
26	0xc1045c08	-8.272469
27	0xc10a7ee6	-8.655981
28	0xbf3f3d2c	-0.74702716
29	0xbe6cae52	-0.23113373
30	0xc0966854	-4.7002354
31	0x404ebdb9	3.2303298

cnn_model_2.bn1.running_var f4 [32]
0	0x4196cdb7	18.850447
1	0x41c5496a	24.660847
2	0x41c03caf	24.02963
3	0x4298cab8	76.395935
4	0x4206c842	33.695564
5	0x4181c8df	16.223082
6	0x41b8e9c2	23.11414
7	0x42423319	48.5499
8	0x42273e5b	41.810894
9	0x42331428	44.769684
10	0x42cfc3a4	103.88211
11	0x419f122c	19.883873
12	0x429a021c	77.00412
13	0x421fa608	39.91214
14	0x41d84392	27.032993
15	0x422fe2fd	43.97167
16	0x42105218	36.08017
17	0x41f707d1	30.878817
18	0x42f2e84d	121.45371
19	0x425703ba	53.75364
20	0x41b9ae8a	23.210224
21	0x42162228	37.533356
22	0x41913f63	18.15595
23	0x41a2660c	20.299828
24	0x42b626dd	91.075905
25	0x41e837e7	29.027296
26	0x425ea024	55.656387
27	0x42a7faa8	83.98956
28	0x41692ea8	14.573891
29	0x429afe9c	77.497284
30	0x42978e25	75.777626
31	0x41cbcf91	25.47635
